invariant_explanations/test_data/weights.npy (npy, 497128 bytes, 1 tensors)

array f4 [25, 4970]
0	0xbe1023d7	-0.14076172
1	0xbf9112a0	-1.1333809
2	0xbddfb28c	-0.10922727
3	0xbfc166df	-1.5109519
4	0xbf5c0032	-0.859378
5	0xbd9a5e7d	-0.075375535
6	0xbe3d452d	-0.1848342
7	0xbdeefba2	-0.11669089
8	0xbfd5c69d	-1.6701237
9	0xbf49da3f	-0.7884864
10	0xbfac1d3a	-1.3446419
11	0xbff5e6b4	-1.921103
12	0xbe950dd2	-0.29112107
13	0xbf672ec7	-0.9030575
14	0xbfb1ad84	-1.3881078
15	0xbe0bfcc8	-0.13670647
16	0xbf17cfc9	-0.5930143
17	0x3e39767c	0.18111604
18	0x3eb73874	0.35785258
19	0xbe8e5f58	-0.27807117
20	0x3ed01fb0	0.40649176
21	0xbb881c06	-0.0041537313
22	0xbea87cac	-0.32907617
23	0x3ce4c3a4	0.02792532
24	0xbf43b3fb	-0.76446503
25	0xbf5d81ce	-0.8652619
26	0x3e2e49cb	0.17020337
27	0xbf2e5ece	-0.6811341
28	0xbf0d3f6d	-0.55174905
29	0x3f2026e1	0.62559325
30	0xbf77e5b7	-0.9683489
31	0x3ea8c7eb	0.32965025
32	0xbe60ad47	-0.219411
33	0xbebf7317	-0.37392494
34	0xbe0de0dd	-0.1385531
35	0x3f50e698	0.8160186
36	0x3e9ca93e	0.30597872
37	0xbf107a89	-0.56436974
38	0x3e0b9f5d	0.13635011
39	0xbf2e488a	-0.68079436
40	0xbf0e04e0	-0.5547619
41	0x3fc42c5d	1.5326039
42	0xbe43d166	-0.19122848
43	0xbeeba057	-0.46020767
44	0xbf1a5269	-0.60282
45	0x3ead2d2b	0.33823523
46	0xbdffd509	-0.12491805
47	0x3eb49f1f	0.3527765
48	0x3e0234ae	0.12715408
49	0xbf083378	-0.53203535
50	0xbf8803da	-1.0626175
51	0x3f254467	0.645575
52	0xbf83aad7	-1.0286511
53	0xbf27d284	-0.65555596
54	0x3eaab971	0.33344606
55	0xbf28f445	-0.65997726
56	0xbf914cf7	-1.1351613
57	0xbdb5d9d8	-0.08879441
58	0xbf6739e4	-0.9032271
59	0xbf65c5c0	-0.8975487
60	0x3e3523b3	0.176894
61	0xbcdc699c	-0.026905827
62	0xbdde1018	-0.108429134
63	0xbe810f4a	-0.25206977
64	0xbf5dd04d	-0.86645967
65	0xbe80af52	-0.2513376
66	0x3f43c988	0.7647939
67	0xbf9ed3a4	-1.2408338
68	0x3e8d2ec2	0.27574736
69	0xbe91ed7f	-0.28501508
70	0xbf06491d	-0.5245531
71	0xbe1bf4fd	-0.15230174
72	0x3da285df	0.0793569
73	0xbee76454	-0.45193732
74	0x3e74e345	0.23914821
75	0x3df9a6ff	0.12190055
76	0x3f805e2d	1.002874
77	0x3edde7d7	0.43340942
78	0xbe9fdb00	-0.3122177
79	0x3f6e453b	0.9307439
80	0x3f0a6534	0.54060674
81	0xbedbbcac	-0.42917383
82	0x3f057df7	0.5214533
83	0xbe82381b	-0.2543343
84	0x3ff42a66	1.9075439
85	0x3c8074a4	0.015680619
86	0xbe154d67	-0.14580308
87	0xbdf53c63	-0.119744085
88	0x3dd5ffa1	0.10449148
89	0x3f6a03af	0.9141187
90	0xbdd685b3	-0.1047472
91	0xbc618e52	-0.013766842
92	0x3f96f7da	1.1794388
93	0x3e608ec6	0.21929464
94	0xbeff1903	-0.4982377
95	0xbec0a7b0	-0.37627935
96	0x3f608391	0.87700754
97	0x3dced394	0.10098949
98	0xbfa9dbc8	-1.3270197
99	0xbd004424	-0.031314984
100	0xbc7f0a88	-0.015566476
101	0xbda53c5a	-0.08068152
102	0x3f61ece5	0.882521
103	0x3e203085	0.15643509
104	0x3eb262a0	0.3484087
105	0xbf0f2a2a	-0.5592371
106	0xbd6f2d28	-0.058392674
107	0xbf1d19ab	-0.6136729
108	0x3f98697c	1.1907191
109	0xbe865bbd	-0.26241866
110	0xbf1c0f46	-0.60960805
111	0xbf14018a	-0.5781485
112	0xbe8ae9f3	-0.27131614
113	0xbf77fc32	-0.96869195
114	0x3e8f228f	0.27956054
115	0xbdd29d34	-0.1028389
116	0xbfad5c2c	-1.3543754
117	0x3f0ada53	0.54239386
118	0xbf12815b	-0.5722863
119	0x3e2903e4	0.1650539
120	0xbf61e627	-0.8824181
121	0x3d9f1fbc	0.07769725
122	0xbe982737	-0.2971742
123	0x3eb81e0a	0.35960418
124	0xbe135121	-0.14386417
125	0x3fa34055	1.2754008
126	0x3eae39fe	0.3402862
127	0x3ebedb79	0.3727682
128	0x3f566544	0.8374827
129	0xbdabc778	-0.08387655
130	0x3f492806	0.78576696
131	0xbf391400	-0.7229614
132	0xbdb24611	-0.0870477
133	0x3f387eda	0.7206856
134	0xbef75dde	-0.48313802
135	0x3f4e9ae2	0.8070508
136	0xbe32967c	-0.17440218
137	0x3f9db1ad	1.2319847
138	0xbf313106	-0.6921543
139	0x3e25ddca	0.16197887
140	0xbf1f983f	-0.62341684
141	0x3f3f6585	0.7476428
142	0x3e610968	0.21976244
143	0xbf405f55	-0.75145465
144	0xbe247196	-0.16058955
145	0x3e36a6d9	0.17837085
146	0xbe9b39ab	-0.30317435
147	0xbf957d6b	-1.16789
148	0x3fae6749	1.362527
149	0x3e916fb9	0.2840555
150	0x3f2ae683	0.6675798
151	0x3f250694	0.6446316
152	0x3f0c1264	0.5471556
153	0xbee4f90f	-0.44721267
154	0xbeb76425	-0.35818592
155	0xbf6a5604	-0.915375
156	0xbf798467	-0.97467655
157	0x3f582710	0.84434605
158	0xbeea445f	-0.45755288
159	0xbbcbad2b	-0.0062157116
160	0xbe4cec40	-0.20011997
161	0x3f5b06c1	0.8555718
162	0x3d3ed24e	0.04658728
163	0x3f2fc5b7	0.68661064
164	0x3ee9bb03	0.4565049
165	0x3ed9f368	0.42568517
166	0x3e9c3613	0.30510005
167	0x3dc4b5b5	0.0960497
168	0x3f0de11e	0.55421627
169	0x3e55a438	0.20863426
170	0x3f1c9e91	0.61179453
171	0x3e7f8c91	0.24955966
172	0xbdb593b3	-0.08866062
173	0xbe828b4e	-0.25496906
174	0xbe2c4457	-0.16822945
175	0x3f5d5ebf	0.86472696
176	0x3e8af1e1	0.27137664
177	0x3dcad248	0.09903389
178	0xbf2d5787	-0.6771168
179	0x3e3ca71f	0.18423127
180	0x3dd2e3bd	0.10297344
181	0xbc7491ca	-0.014927337
182	0xbf45004a	-0.76953566
183	0x3eb3af61	0.3509474
184	0xbde8af4c	-0.1136156
185	0xbe319972	-0.17343691
186	0x3dc3d19e	0.09561466
187	0x3e710301	0.23536302
188	0xbf88cdc2	-1.0687792
189	0x3da5e60a	0.08100517
190	0x3e47e89b	0.19522326
191	0x3f00e768	0.503531
192	0x3d39442a	0.045231022
193	0xbee61dfb	-0.44944748
194	0x3e756adc	0.23966545
195	0x3de09d43	0.10967495
196	0x3e3e300b	0.18573014
197	0x3eb5a59b	0.3547791
198	0xbf8b0c82	-1.0863192
199	0xbdb19bc9	-0.08672292
200	0xbf2365d3	-0.63827246
201	0x3ddf7640	0.10911226
202	0x3ddc22c6	0.1074882
203	0x3ef5b654	0.47990668
204	0x3eefd7d6	0.46844357
205	0xbe049551	-0.12947585
206	0x3db3ddd2	0.08782543
207	0xbc1c9511	-0.009557025
208	0x3f1426dd	0.578718
209	0x3eb011cd	0.3438858
210	0xbfa927c9	-1.3215266
211	0xbec883db	-0.39163098
212	0xbe95cfc9	-0.2926009
213	0xbe021f41	-0.12707235
214	0x3dba5ef5	0.09100143
215	0x3f2541e5	0.6455367
216	0x3ef60f5b	0.4805859
217	0x3ea49b93	0.32149944
218	0x3f0348d8	0.51283026
219	0xbfe2b0d2	-1.7710211
220	0xbee094b3	-0.43863449
221	0x3ec5cdf6	0.38633698
222	0xbed23976	-0.41059464
223	0xbe1a8420	-0.15089464
224	0xbe3c69e6	-0.18399772
225	0xbeee9670	-0.4659915
226	0x3ec968dd	0.39337817
227	0x3d9d7213	0.076877736
228	0xbd079710	-0.03310305
229	0x3c995612	0.0187178
230	0x3e958571	0.2920337
231	0xbe07fe8b	-0.13280694
232	0xbebe4061	-0.37158492
233	0x3e754e9e	0.23955771
234	0xbd86bf3d	-0.065794446
235	0x3cecc45c	0.028902225
236	0x3f1bf38f	0.60918516
237	0xbebf2ee2	-0.37340456
238	0x3ea80aef	0.32820842
239	0xbfcec0a5	-1.615254
240	0xbe2a35f0	-0.16622138
241	0x3dfe701b	0.12423726
242	0xbfdf14e7	-1.7428254
243	0x3e660def	0.22466253
244	0xbf54fb33	-0.831958
245	0xbda70f62	-0.08157231
246	0x3f25b25e	0.6472529
247	0x3e919ad4	0.28438437
248	0x3d5c0939	0.053719733
249	0x3e9a01d3	0.30079517
250	0x3e66582a	0.2249457
251	0xbf00c496	-0.50299966
252	0x3f08cc4c	0.5343673
253	0x3e92b698	0.28654933
254	0x3f0f165b	0.55893487
255	0xbf4f2635	-0.80917674
