non_semantic_speech_benchmark/data_prep/testdata/model1_woutfrontend.tflite (tflite, 271188 bytes, 89 tensors)

model/MobilenetV3tiny/17042 f4 [8]
00000000: 90a2 123b 101f 09bb 92cd 65bb 0000 0000
00000010: 426b 7439 0000 0000 0000 0000 0000 0000
0.0022374727 -0.0020923056 -0.0035065156 0.0 0.0002330961 0.0 0.0 0.0

model/MobilenetV3tiny/17140 f4 [8]
00000000: 3d39 06bb ede9 5a3b 5ce8 4f39 560a 113b
00000010: b244 59ba 62f8 52bb 2849 123b e424 d03a
-0.0020480894 0.003340359 0.00019827619 0.0022131405 -0.00082881295 -0.0032191505 0.0022321437 0.0015880135

model/MobilenetV3tiny/17178 f4 [16]
00000000: 5d19 09bb db0e d8b9 1c85 fe3a 201c 2ebb
00000010: bc22 cdba f8c5 eb3a e8c9 b4ba d716 27bb
00000020: f17d 8a3a 9b75 43ba a195 ac3b 55ce 073b
00000030: b0d8 e5ba 80bd 61bb e7d3 633b e52b dc37
-0.0020919659 -0.000412098 0.0019418332 -0.0026567057 -0.001565061 0.0017988076 -0.0013793083 -0.0025495791
0.0010566098 -0.0007456184 0.0052668606 0.0020722349 -0.0017535891 -0.0034445226 0.0034763755 2.6246484e-05

model/MobilenetV3tiny/17216 f4 [16]
00000000: 5a30 903a b2c9 5939 3092 103b 5b7f 973a
00000010: 84be 16b9 21dd c4ba 0000 0000 da9f 9bb9
00000020: d6b0 97ba 206e 8d3b d2f3 333a 4369 9eba
00000030: 9bda 94ba be11 e9b9 3cbf de3a de17 a6ba
0.0011000738 0.0002076987 0.002205979 0.0011558341 -0.00014376087 -0.0015019515 0.0 -0.00029683003
-0.0011573087 0.0043161064 0.000686464 -0.0012085814 -0.0011356653 -0.00044454442 0.0016994248 -0.0012671908

model/MobilenetV3tiny/17254 f4 [8]
00000000: 66ac 123b 05f1 a2ba 7dd9 893b 5f14 c4ba
00000010: f279 2c3a f554 3b3b c84f 72bb 31c9 5c3a
0.002238059 -0.0012431449 0.004206835 -0.0014959684 0.00065794506 0.0028584574 -0.0036973823 0.0008422314

model/MobilenetV3tiny/17292 f4 [16]
00000000: bfff 8abb 2953 26b9 7a92 1d3b 0372 9eba
00000010: 8464 303a d08a 8fbb 899d beba 671a 97bb
00000020: 6ef2 12bb dc40 7ab8 9c11 03ba e7fa fc3a
00000030: c688 273b 34d5 adba f6ed 8a3b bdca 263a
-0.004241913 -0.00015861973 0.0024043606 -0.0012088421 0.0006728845 -0.0043805614 -0.0014542799 -0.0046113017
-0.0022422331 -5.966505e-05 -0.00049998774 0.0019300849 0.00255637 -0.0013262392 0.004239793 0.0006362608

model/MobilenetV3tiny/17330 f4 [16]
00000000: effc ad39 48df 093a ba62 8cbb acb2 69b7
00000010: cb91 1e3b 2021 21bb 206d 5e3b bcbe 403a
00000020: c0ee 42ba 10d9 c33a fa20 ac3a 06cb 21bb
00000030: e71b 9d3a 4888 fe3a 6df9 18bb 4444 02bb
0.00033185582 0.0005259407 -0.00428423 -1.39294825e-05 0.0024195786 -0.0024586394 0.0033939555 0.00073526404
-0.0007436089 0.0014942009 0.0013132386 -0.0024687662 0.0011986465 0.0019419277 -0.0023342029 -0.0019877115

re_lu_2/Relu6;model/MobilenetV3tiny/StatefulPartitionedCall/re_lu_2/Relu6;tf.__operators__.add_1/AddV2;model/MobilenetV3tiny/StatefulPartitionedCall/tf.__operators__.add_1/AddV2;expanded_conv/squeeze_excite/Conv_1/BiasAdd;model/MobilenetV3tiny/StatefulPartitionedCall/expanded_conv/squeeze_excite/Conv_1/BiasAdd;expanded_conv_9/squeeze_excite/Conv/Conv2D;model/MobilenetV3tiny/StatefulPartitionedCall/expanded_conv_9/squeeze_excite/Conv/Conv2D;expanded_conv/squeeze_excite/Conv_1/Conv2D;model/MobilenetV3tiny/StatefulPartitionedCall/expanded_conv/squeeze_excite/Conv_1/Conv2D;model/MobilenetV3tiny/17046;tf.__operators__.add_9/y;model/MobilenetV3tiny/StatefulPartitionedCall/tf.__operators__.add_9/y f4 [16]
00000000: 38f3 3f40 faeb 3f40 275e 4040 b200 4040
00000010: bff4 3f40 38f9 3f40 5ae0 3f40 26f5 3f40
00000020: cd09 4040 7cf0 3f40 0df5 3f40 85e9 3f40
00000030: 7d41 4040 fc12 4040 18df 3f40 5ffc 3f40
2.99922 2.9987779 3.0057466 3.0000424 2.999313 2.999586 2.9980683 2.9993377
3.0005982 2.999053 2.9993317 2.998628 3.003997 3.0011587 2.9979916 2.9997785

re_lu_9/Relu6;model/MobilenetV3tiny/StatefulPartitionedCall/re_lu_9/Relu6;tf.__operators__.add_4/AddV2;model/MobilenetV3tiny/StatefulPartitionedCall/tf.__operators__.add_4/AddV2;expanded_conv_3/squeeze_excite/Conv_1/BiasAdd;model/MobilenetV3tiny/StatefulPartitionedCall/expanded_conv_3/squeeze_excite/Conv_1/BiasAdd;expanded_conv_3/squeeze_excite/Conv_1/Conv2D;model/MobilenetV3tiny/StatefulPartitionedCall/expanded_conv_3/squeeze_excite/Conv_1/Conv2D;model/MobilenetV3tiny/17144;tf.__operators__.add_9/y;model/MobilenetV3tiny/StatefulPartitionedCall/tf.__operators__.add_9/y f4 [32]
00000000: e9ed 3f40 33f5 3f40 110e 4040 9ed9 3f40
00000010: 0e08 4040 523b 4040 1626 4040 6af9 3f40
00000020: 40eb 3f40 363b 4040 2318 4040 8ee9 3f40
00000030: 9705 4040 70f0 3f40 36fc 3f40 1289 3f40
00000040: 7d20 4040 961a 4040 940a 4040 fc00 4040
00000050: 53d5 3f40 da21 4040 5b02 4040 eee0 3f40
00000060: 1af8 3f40 e4dd 3f40 51fa 3f40 d3c4 3f40
00000070: c1ec 3f40 6804 4040 e473 4040 a315 4040
2.998896 2.9993408 3.0008585 2.9976573 3.0004916 3.0036206 3.0023246 2.999598
2.9987335 3.003614 3.0014732 2.99863 3.0003412 2.9990501 2.9997687 2.992741
3.001983 3.0016227 3.0006456 3.00006 2.9973953 3.0020661 3.0001438 2.9981036
2.999518 2.9979181 2.999653 2.9963882 2.9988253 3.000269 3.0070734 3.0013206

re_lu_12/Relu6;model/MobilenetV3tiny/StatefulPartitionedCall/re_lu_12/Relu6;tf.__operators__.add_7/AddV2;model/MobilenetV3tiny/StatefulPartitionedCall/tf.__operators__.add_7/AddV2;expanded_conv_4/squeeze_excite/Conv_1/BiasAdd;model/MobilenetV3tiny/StatefulPartitionedCall/expanded_conv_4/squeeze_excite/Conv_1/BiasAdd;Conv_1/Conv2D;model/MobilenetV3tiny/StatefulPartitionedCall/Conv_1/Conv2D;expanded_conv_4/squeeze_excite/Conv_1/Conv2D;model/MobilenetV3tiny/StatefulPartitionedCall/expanded_conv_4/squeeze_excite/Conv_1/Conv2D;model/MobilenetV3tiny/17182;tf.__operators__.add_9/y;model/MobilenetV3tiny/StatefulPartitionedCall/tf.__operators__.add_9/y f4 [48]
00000000: 050d 4040 1b50 4040 1607 4040 4f00 4040
00000010: 53cf 3f40 8f30 4040 4e16 4040 62bd 3f40
00000020: 00dd 3f40 650c 4040 83d3 3f40 a535 4040
00000030: 8cd0 3f40 a8b8 3f40 7d08 4040 4425 4040
00000040: 30d9 3f40 0d27 4040 07ee 3f40 7b1b 4040
00000050: 442f 4040 fdef 3f40 d9e3 3f40 cd10 4040
00000060: 2d3f 4040 f111 4040 710d 4040 7613 4040
00000070: 870f 4040 a3e9 3f40 9911 4040 9acd 3f40
00000080: eef5 3f40 ad44 4040 e320 4040 72d7 3f40
00000090: de13 4040 a31e 4040 322c 4040 28df 3f40
000000a0: 7ff9 3f40 8bf2 3f40 3918 4040 3de7 3f40
000000b0: c8d4 3f40 bc25 4040 06ea 3f40 8cde 3f40
3.0007946 3.0048892 3.0004325 3.0000188 2.997029 3.0029638 3.0013614 2.995934
2.9978638 3.0007565 2.9972847 3.0032742 2.9971037 2.9956455 3.000518 3.0022745
2.997631 3.0023835 2.998903 3.0016773 3.0028849 2.9990227 2.9982817 3.0010254
3.003856 3.001095 3.0008204 3.0011878 3.0009477 2.998635 3.001074 2.996924
2.9993854 3.0041916 3.0020072 2.9975247 3.0012126 3.00187 3.0026975 2.9979954
2.999603 2.9991786 3.0014784 2.9984887 2.9973621 3.0023031 2.9986587 2.9979582

re_lu_15/Relu6;model/MobilenetV3tiny/StatefulPartitionedCall/re_lu_15/Relu6;tf.__operators__.add_10/AddV2;model/MobilenetV3tiny/StatefulPartitionedCall/tf.__operators__.add_10/AddV2;expanded_conv_5/squeeze_excite/Conv_1/BiasAdd;model/MobilenetV3tiny/StatefulPartitionedCall/expanded_conv_5/squeeze_excite/Conv_1/BiasAdd;Conv_1/Conv2D;model/MobilenetV3tiny/StatefulPartitionedCall/Conv_1/Conv2D;expanded_conv_5/squeeze_excite/Conv_1/Conv2D;model/MobilenetV3tiny/StatefulPartitionedCall/expanded_conv_5/squeeze_excite/Conv_1/Conv2D;model/MobilenetV3tiny/17220;tf.__operators__.add_9/y;model/MobilenetV3tiny/StatefulPartitionedCall/tf.__operators__.add_9/y f4 [48]
00000000: df40 4040 5bf9 3f40 70d7 3f40 5341 4040
00000010: abdd 3f40 10ff 3f40 fdf5 3f40 5c19 4040
00000020: 5018 4040 0c00 4040 98ae 3f40 46f7 3f40
00000030: 8fef 3f40 0f44 4040 c4f0 3f40 2327 4040
00000040: dd01 4040 733d 4040 d6d6 3f40 0e05 4040
00000050: b1d5 3f40 7ddd 3f40 b102 4040 e40b 4040
00000060: 20c3 3f40 8e10 4040 64cd 3f40 bee3 3f40
00000070: d9e8 3f40 d0f7 3f40 d407 4040 4426 4040
00000080: b4ca 3f40 5d17 4040 c708 4040 59e2 3f40
00000090: ce02 4040 451c 4040 8509 4040 4f02 4040
000000a0: 360d 4040 7f0d 4040 0cf9 3f40 13f0 3f40
000000b0: f10c 4040 5d26 4040 0df6 3f40 0bfb 3f40
3.0039594 2.9995944 2.9975243 3.003987 2.9979045 2.9999428 2.999389 3.0015478
3.001484 3.0000029 2.9950314 2.9994674 2.9989965 3.004154 2.9990702 3.0023887
3.0001137 3.0037506 2.9974875 3.0003085 2.9974177 2.9978936 3.0001643 3.0007257
2.9962845 3.0010104 2.996911 2.9982753 2.998587 2.9995003 3.0004778 3.0023355
2.996747 3.001426 3.0005357 2.9981902 3.0001712 3.0017254 3.000581 3.000141
3.0008063 3.0008237 2.9995756 2.999028 3.0007899 3.0023415 2.9993927 2.9996974

re_lu_18/Relu6;model/MobilenetV3tiny/StatefulPartitionedCall/re_lu_18/Relu6;tf.__operators__.add_13/AddV2;model/MobilenetV3tiny/StatefulPartitionedCall/tf.__operators__.add_13/AddV2;expanded_conv_6/squeeze_excite/Conv_1/BiasAdd;model/MobilenetV3tiny/StatefulPartitionedCall/expanded_conv_6/squeeze_excite/Conv_1/BiasAdd;expanded_conv_6/squeeze_excite/Conv_1/Conv2D;model/MobilenetV3tiny/StatefulPartitionedCall/expanded_conv_6/squeeze_excite/Conv_1/Conv2D;model/MobilenetV3tiny/17258;tf.__operators__.add_9/y;model/MobilenetV3tiny/StatefulPartitionedCall/tf.__operators__.add_9/y f4 [24]
00000000: df4b 4040 4f06 4040 22ed 3f40 ea11 4040
00000010: 95f7 3f40 fae0 3f40 6d26 4040 9ffc 3f40
00000020: 48c6 3f40 3833 4040 f0f3 3f40 4cec 3f40
00000030: 260c 4040 4ad8 3f40 4ee6 3f40 130c 4040
00000040: 10d5 3f40 1332 4040 03f2 3f40 d317 4040
00000050: 942f 4040 a5ee 3f40 abd5 3f40 3acd 3f40
3.0046308 3.000385 2.9988484 3.0010934 2.9994862 2.9981065 3.0023453 2.9997938
2.9964771 3.0031261 2.9992638 2.9987974 3.0007415 2.9975762 2.9984317 3.000737
2.9973793 3.0030563 2.9991462 3.001454 3.002904 2.9989407 2.9974163 2.996901

re_lu_21/Relu6;model/MobilenetV3tiny/StatefulPartitionedCall/re_lu_21/Relu6;tf.__operators__.add_16/AddV2;model/MobilenetV3tiny/StatefulPartitionedCall/tf.__operators__.add_16/AddV2;expanded_conv_8/squeeze_excite/Conv_1/BiasAdd;model/MobilenetV3tiny/StatefulPartitionedCall/expanded_conv_8/squeeze_excite/Conv_1/BiasAdd;Conv_1/Conv2D;model/MobilenetV3tiny/StatefulPartitionedCall/Conv_1/Conv2D;expanded_conv_8/squeeze_excite/Conv_1/Conv2D;model/MobilenetV3tiny/StatefulPartitionedCall/expanded_conv_8/squeeze_excite/Conv_1/Conv2D;model/MobilenetV3tiny/17296;tf.__operators__.add_9/y;model/MobilenetV3tiny/StatefulPartitionedCall/tf.__operators__.add_9/y f4 [48]
00000000: 4ae9 3f40 3359 4040 9c2d 4040 f40f 4040
00000010: 2038 4040 78ce 3f40 4a2c 4040 d71a 4040
00000020: d2e3 3f40 351b 4040 c5d0 3f40 8ae0 3f40
00000030: f141 4040 fbe5 3f40 6401 4040 6ff4 3f40
00000040: 715f 4040 e1b9 3f40 53f1 3f40 fae0 3f40
00000050: e1eb 3f40 ab0f 4040 67cc 3f40 7607 4040
00000060: c8e0 3f40 c924 4040 ce3a 4040 8b15 4040
00000070: bb18 4040 39ed 3f40 e8c8 3f40 1013 4040
00000080: 3cd1 3f40 bad9 3f40 d5bb 3f40 e1d6 3f40
00000090: af21 4040 c438 4040 c1d1 3f40 fe9f 3f40
000000a0: 191b 4040 a623 4040 f8fb 3f40 4917 4040
000000b0: b725 4040 8c01 4040 bd3c 4040 371c 4040
2.9986138 3.0054443 3.0027838 3.0009737 3.0034256 2.9969769 3.0027032 3.0016382
2.99828 3.0016606 2.9971173 2.9980798 3.0040247 2.998412 3.0000849 2.999294
3.0058253 2.9957201 2.9991043 2.9981065 2.998772 3.0009563 2.9968507 3.0004554
2.9980946 3.0022452 3.0035892 3.0013149 3.0015094 2.998854 2.9966373 3.0011635
2.9971457 2.997664 2.9958394 2.9974902 3.002056 3.0034647 2.9971774 2.9941401
3.001654 3.0021758 2.999754 3.0014212 3.002302 3.0000944 3.0037072 3.001722

re_lu_24/Relu6;model/MobilenetV3tiny/StatefulPartitionedCall/re_lu_24/Relu6;tf.__operators__.add_19/AddV2;model/MobilenetV3tiny/StatefulPartitionedCall/tf.__operators__.add_19/AddV2;expanded_conv_9/squeeze_excite/Conv_1/BiasAdd;model/MobilenetV3tiny/StatefulPartitionedCall/expanded_conv_9/squeeze_excite/Conv_1/BiasAdd;Conv_1/Conv2D;model/MobilenetV3tiny/StatefulPartitionedCall/Conv_1/Conv2D;expanded_conv_9/squeeze_excite/Conv_1/Conv2D;model/MobilenetV3tiny/StatefulPartitionedCall/expanded_conv_9/squeeze_excite/Conv_1/Conv2D;model/MobilenetV3tiny/17334;tf.__operators__.add_9/y;model/MobilenetV3tiny/StatefulPartitionedCall/tf.__operators__.add_9/y f4 [48]
00000000: 0eeb 3f40 d74c 4040 ea3f 4040 2229 4040
00000010: 16fa 3f40 afd4 3f40 39e8 3f40 a3af 3f40
00000020: 41df 3f40 eae7 3f40 e4ff 3f40 1d0e 4040
00000030: c038 4040 17e8 3f40 4d0c 4040 3122 4040
00000040: a0d8 3f40 0531 4040 ade3 3f40 3ed2 3f40
00000050: 0187 3f40 d0df 3f40 46f7 3f40 6f0b 4040
00000060: b5d9 3f40 df61 4040 7f41 4040 0f01 4040
00000070: e539 4040 cae2 3f40 46d8 3f40 2045 4040
00000080: 09b7 3f40 eb3e 4040 1b40 4040 9ee1 3f40
00000090: a1fe 3f40 d626 4040 d7e2 3f40 08c9 3f40
000000a0: 34f6 3f40 ef2d 4040 a026 4040 ecb5 3f40
000000b0: e0fa 3f40 a022 4040 5924 4040 c11e 4040
2.9987216 3.00469 3.003901 3.0025105 2.999639 2.9973562 2.9985487 2.995095
2.9980013 2.99853 2.9999933 3.0008614 3.0034637 2.9985406 3.0007508 3.0020869
2.9975967 3.002992 2.9982712 2.9972072 2.992615 2.9980354 2.9994674 3.0006979
2.9976628 3.0059736 3.0039976 3.0000646 3.0035336 2.998217 2.9975753 3.004219
2.9955466 3.0038402 3.0039127 2.9981456 2.9999163 3.0023704 2.9982202 2.996645
2.999402 3.0028036 3.0023575 2.9954786 2.9996872 3.0021133 3.0022185 3.001877

model/distilled_output/17385 f4 [2]
00000000: 8114 a9bc ec23 9d3c
-0.02063966 0.019182168

expanded_conv/depthwise/BatchNorm/FusedBatchNormV3;model/MobilenetV3tiny/StatefulPartitionedCall/expanded_conv/depthwise/BatchNorm/FusedBatchNormV3 f4 [16]
00000000: 52b3 bdbb 1482 423b 447f b3ba 72db 883b
00000010: 091e 4fbc 9eb9 feb9 601e 1d3b 98fc c13b
00000020: c841 ff39 0cd7 27b9 087c d7ba 8c2a b3bb
00000030: ebe2 0b3c a13e 973c 909c c8bb a21b 48bb
-0.005789199 0.0029679583 -0.0013694544 0.0041765505 -0.012641438 -0.0004858495 0.0023974404 0.005920004
0.000486864 -0.00016006472 -0.0016440162 -0.0054677185 0.008537988 0.018462481 -0.0061221793 -0.0030534049

expanded_conv_1/expand/BatchNorm/FusedBatchNormV3;model/MobilenetV3tiny/StatefulPartitionedCall/expanded_conv_1/expand/BatchNorm/FusedBatchNormV3 f4 [40]
00000000: 2890 3cbb 26aa ad39 79e8 d13a e6db c93b
00000010: d47b 8c3a 43db 4dba 55ba 4f3b d329 513a
00000020: 9669 c8ba e8c1 823a f13f 69bb bd3e 373b
00000030: ab8f 793a 2124 e0ba ec34 c0ba 6887 aeba
00000040: 26b1 153b 981d 3cbb 1e3e 1c3b 53f5 a43a
00000050: 41f2 f1ba 012f 0d3b d3bd 28bb 8aea b63a
00000060: f5b6 f5b9 8a4b c238 411e 0239 a774 aeba
00000070: bb07 823b 4768 453b 477e 27bb aaf9 3cbb
00000080: 33d2 44ba cdf2 303a fade 0e3b c475 7db9
00000090: b8f9 903a 89aa 12bb 2ed5 34bb 5ed3 90b9
-0.0028772447 0.00033123902 0.0016014717 0.006160247 0.0010718056 -0.0007852802 0.0031696756 0.00079789496
-0.0015290256 0.0009976001 -0.003559109 0.002796098 0.00095200044 -0.0017100611 -0.001466421 -0.0013315501
0.0022841184 -0.0028704163 0.0023840736 0.0012585319 -0.0018459038 0.002154291 -0.002574791 0.0013955396
-0.00046866355 9.264711e-05 0.00012409037 -0.0013309912 0.0039682067 0.0030121969 -0.0025557445 -0.0028835335
-0.0007508129 0.00067500473 0.0021800385 -0.00024171831 0.001106075 -0.002237948 -0.0027592885 -0.000276233

expanded_conv_1/depthwise/BatchNorm/FusedBatchNormV3;model/MobilenetV3tiny/StatefulPartitionedCall/expanded_conv_1/depthwise/BatchNorm/FusedBatchNormV3 f4 [40]
00000000: 2647 103c ee25 e53b b8c9 29ba aa30 0fbb
00000010: 0b37 90bc 1c30 ec3a 7227 8ebc 140b 793c
00000020: e4da babc 3de2 69bc 5690 553b af93 6cbc
00000030: 6af4 c23c be78 bcbc e395 963b 74e6 1ebc
00000040: 50e7 3fbc 4625 f63b 101b a23b 8418 b33c
00000050: 86f2 b4bb 7225 a9ba cf57 383c 1f14 a0bb
00000060: b76d cf3c 22e0 3fbc 6a45 ed3c 15a0 703c
00000070: f32d 263c 8be7 493c 57f0 efbb 43b6 72bc
00000080: 00b6 4d3c 9c25 dfbb e883 93bc 6abe 513c
00000090: 3987 0cbc ceb5 5abc fead 5dbc b3da 223c
0.008806026 0.006993047 -0.0006476897 -0.0021849074 -0.017604372 0.0018019709 -0.017352793 0.015200395
-0.022809453 -0.014275131 0.0032587252 -0.014439507 0.023798186 -0.023006793 0.0045955046 -0.009698499
-0.011712864 0.0075117676 0.0049470738 0.021862276 -0.005522075 -0.0012904836 0.011251404 -0.004885211
0.02532087 -0.011711152 0.028963763 0.014686604 0.010142791 0.012323271 -0.007322352 -0.014813962
0.012555599 -0.0068099033 -0.018007234 0.012801746 -0.0085771615 -0.01334901 -0.0135302525 0.009939837

expanded_conv_2/expand/BatchNorm/FusedBatchNormV3;model/MobilenetV3tiny/StatefulPartitionedCall/expanded_conv_2/expand/BatchNorm/FusedBatchNormV3 f4 [32]
00000000: 9c02 70bb 6125 503b 7050 7dbb 2ef4 b63b
00000010: 9b57 0abb 0cc5 d2ba 3c96 9c3b a7df 2cbb
00000020: da4c 3bba e77c ecba f494 be3a 83f8 0dba
00000030: 08c9 1d3a 44f3 94ba b180 103a 359c c2bb
00000040: f7f0 87bb 71e7 48bb 56fb 153b 83d5 e3bb
00000050: 0c9d c83a 48da adba 017b 843b 8ef7 04bb
00000060: b54f d2ba 0f03 28bb cd4c 213a b148 a83b
00000070: d516 833b 1a77 943a 0b74 bf3a 62e9 1bbb
-0.003662265 0.003176056 -0.003865268 0.0055833077 -0.0021109346 -0.0016080453 0.0047786515 -0.0026378424
-0.00071449357 -0.0018042595 0.0014540241 -0.0005415754 0.00060190307 -0.0011364003 0.00055123406 -0.0059390315
-0.0041485983 -0.0030655528 0.0022885404 -0.006952943 0.0015305593 -0.0013263905 0.0040429835 -0.0020289156
-0.0016045483 -0.0025636589 0.0006153107 0.0051356186 0.0040005245 0.0011326999 0.0014606727 -0.002379023

expanded_conv_2/depthwise/BatchNorm/FusedBatchNormV3;model/MobilenetV3tiny/StatefulPartitionedCall/expanded_conv_2/depthwise/BatchNorm/FusedBatchNormV3 f4 [32]
00000000: 6997 c93c 74a8 b6bb d681 a73c 4038 c0bc
00000010: d2b6 cfbb 2a3f 61bc db77 743c 76d2 4e3b
00000020: 97a0 32bb b9b9 fa3c 53d8 81bb 6e37 5cbc
00000030: 56d6 953c 877f 0c3d 6611 8c3c a395 d53b
00000040: eb93 c73b 969d efbb b211 6b3c 2451 e03b
00000050: 5460 2cbc 6b77 553b 9855 50bc ba45 25bc
00000060: 7180 c6bc a2fb ea3c 5c84 54bc bf5c 1e3c
00000070: fd72 e53c ee9e 34bc 329e e33c 5c9d 5abc
0.02460833 -0.0055742804 0.020447653 -0.023464322 -0.0063389326 -0.01374797 0.014921154 0.003155855
-0.0027256364 0.030606138 -0.0039625554 -0.01344095 0.01829068 0.034301307 0.01709814 0.006518082
0.0060906312 -0.007312487 0.014347481 0.00684561 -0.010521013 0.00325724 -0.01271572 -0.010087425
-0.024231168 0.028684441 -0.01297101 0.009665667 0.028008932 -0.01102422 0.027785394 -0.013343181

expanded_conv_3/depthwise/BatchNorm/FusedBatchNormV3;model/MobilenetV3tiny/StatefulPartitionedCall/expanded_conv_3/depthwise/BatchNorm/FusedBatchNormV3 f4 [32]
00000000: f386 a3bb d78d 96bb 2876 33b9 964f cebb
00000010: 9e5d 25bc 106c 7e3b c08b 193c f39c 06bb
00000020: 1034 1ab9 f030 e93b 1ea5 1e3c da1b 2cbb
00000030: 8b1f 1abc b57c 2dbc f9f8 363b 9ae6 08bc
00000040: 4838 52bb 9827 b939 909e 433c 7ab3 55bb
00000050: c37a a13b 6976 603c c2e5 423c 7e48 dfba
00000060: 5438 503c e0a6 4f3c b0b9 0139 355d 10bc
00000070: b0fc eb3b 46d2 06bb 3626 09bb 31ce 61bc
-0.0049904524 -0.0045945453 -0.00017114787 -0.0062961085 -0.010093121 0.0038821734 0.009371698 -0.0020540326
-0.00014705979 0.0071164295 0.009682922 -0.0026261718 -0.0094069345 -0.0105888145 0.0027919395 -0.008355761
-0.0032077003 0.0003531545 0.01193966 -0.0032608197 0.0049279644 0.013700106 0.011895599 -0.0017035154
0.012708742 0.012674063 0.00012371573 -0.008811285 0.0072017536 -0.002057211 -0.0020927317 -0.01378207

expanded_conv_4/depthwise/BatchNorm/FusedBatchNormV3;model/MobilenetV3tiny/StatefulPartitionedCall/expanded_conv_4/depthwise/BatchNorm/FusedBatchNormV3 f4 [48]
00000000: 67d7 b8bb 4c9f f63b ddad 0e3c 26d6 a839
00000010: 5997 3abc d059 ddb8 dae9 eaba aa44 fdbb
00000020: 8c07 1fbb a848 763a 729e 5b3b 896b 043c
00000030: 3c37 38ba 4aa9 7aba 492a feba 5021 f8bb
00000040: 2f0a 77bb b8da 5db8 00b6 abba ba03 153c
00000050: 398f 213b cdf2 fc3a 20d3 d5bb 5841 07b8
00000060: e499 393c a687 12bc 2bc7 743b 2b08 593b
00000070: 063d 193b 1838 36bb beb5 483b 2fc9 13bc
00000080: 80db f8b9 e0b0 8f3c dcd3 ab3b 78bd 73bb
00000090: 7439 53bb 1989 453c cce8 30bc d2fb 293b
000000a0: 371f f8bb c8ab f239 daf5 c73b 8b93 7e3b
000000b0: 981e 1fb9 4dce ed3a 38c6 cabb e282 8cbb
-0.0056409123 0.007526314 0.008708444 0.0003220301 -0.011388623 -0.0001055483 -0.0017922476 -0.0077291327
-0.0024265973 0.0009394982 0.0033511189 0.008082279 -0.00070272735 -0.0009561969 -0.0019391264 -0.0075723305
-0.003769528 -5.2894204e-05 -0.0013100505 0.009095127 0.0024652018 0.0019298434 -0.006525412 -3.2247364e-05
0.011328194 -0.008943474 0.0037350159 0.003311644 0.002338232 -0.002780443 0.0030625905 -0.009020134
-0.00047465786 0.017540395 0.0052437615 -0.003719179 -0.003223029 0.012056612 -0.010797691 0.002593745
-0.0075720805 0.00046285824 0.006102306 0.0038845267 -0.00015174819 0.0018143147 -0.0061881803 -0.0042880634

expanded_conv_5/depthwise/BatchNorm/FusedBatchNormV3;model/MobilenetV3tiny/StatefulPartitionedCall/expanded_conv_5/depthwise/BatchNorm/FusedBatchNormV3 f4 [48]
00000000: 3a66 13bb 2c6b 923b e06e 0abc fe9a c1ba
00000010: b16c 85bb 2b5f 27bb b845 ee3b c647 ab3b
00000020: 4df7 9b3b 70d9 d83b e822 e33a 54e7 913b
00000030: 038a c93b 1e66 c03a 88f0 783b 2239 07bb
00000040: e8b2 7ebb c013 7ebb b477 f4bb b473 203b
00000050: b080 4a39 5ea0 f2bb 5e33 5bbb 241b 473a
00000060: fcbd 10bb 39b7 ae3a ffa7 89ba 4c74 393c
00000070: 4c0c 8bbb e046 b93b c56f 513b 62f0 08bb
00000080: 9c12 2d3a d485 303b 041a 49bb b076 0bba
00000090: ca92 55bb ab1a 8cba feb2 da3b 6e07 97bb
000000a0: 489e d4ba 6799 123b f8b2 d738 7cdd 76bb
000000b0: 5d96 abba de7d 883b 0376 80bb d804 7739
-0.0022491352 0.0044683423 -0.008449286 -0.0014770923 -0.004071795 -0.0025538902 0.0072714947 0.005227062
0.004759705 0.0066177174 0.0017329128 0.0044526253 0.0061504855 0.0014678871 0.0037985165 -0.002063342
-0.003886396 -0.0038769096 -0.007460559 0.0024483027 0.00019312161 -0.007404371 -0.0033447365 0.0007595292
-0.0022085896 0.0013329751 -0.0010502337 0.011319231 -0.0042434093 0.005654201 0.003195749 -0.0020895232
0.0006602199 0.0026935237 -0.0030685673 -0.0005320115 -0.0032588714 -0.00106891 0.0066741696 -0.00460904
-0.0016221488 0.0022369267 0.000102853344 -0.0037668636 -0.0013091076 0.004165395 -0.003920318 0.0002355756

expanded_conv_6/depthwise/BatchNorm/FusedBatchNormV3;model/MobilenetV3tiny/StatefulPartitionedCall/expanded_conv_6/depthwise/BatchNorm/FusedBatchNormV3 f4 [24]
00000000: b61a ffba 5bf2 083b 0a8f 02bc 1869 a73a
00000010: a4e2 b1bb e00e 07bc 3c96 1dbb f59b 39bc
00000020: 0af1 66bb a1c0 ae3a 2dc8 a03a 3b87 86bb
00000030: e281 15bb b318 63ba fac6 93ba e525 9d3a
00000040: 2c60 82ba 12ee 24bc 52d5 2dbb e67a 823c
00000050: 9087 003b 5bdd 033b a5d3 8dbb 7246 9dbb
-0.0019462917 0.0020896408 -0.0079686735 0.0012772409 -0.005428629 -0.008243293 -0.0024045845 -0.011328687
-0.0035238885 0.0013332554 0.0012266688 -0.004105476 -0.0022813012 -0.0008663043 -0.001127451 0.0011989443
-0.0009946874 -0.010066526 -0.0026524854 0.015927743 0.0019612052 0.0020120952 -0.0043282085 -0.0047996575

expanded_conv_8/depthwise/BatchNorm/FusedBatchNormV3;model/MobilenetV3tiny/StatefulPartitionedCall/expanded_conv_8/depthwise/BatchNorm/FusedBatchNormV3 f4 [48]
00000000: 9243 8dbb 3233 893b b47c 7dba ba3e d53b
00000010: acfd 893b acb8 163b 8c16 f4bb 6f71 aebb
00000020: fe0f 99ba e0cd b538 ee0d dbba e08f f93a
00000030: 491b c03b 5058 e53a 181c b3bb 82d3 943a
00000040: d078 6f3b 5071 173a 170d 1a3c e6d3 97bb
00000050: 301b fc3b 39c4 0c3c c60c ce3b c066 b8bb
00000060: 1c0d 41bb 166f c8bb 165b 543b b867 31bb
00000070: 18b0 8e38 c86e beba ea15 aabb c86d 103b
00000080: da45 2dba f158 31bb eae7 893b 1954 c1bb
00000090: e954 19bc e83f 9b3a 6f29 0a3b 9087 0b3b
000000a0: c02f 7e3a 50e7 1ab9 9c47 873c 1a88 a8bb
000000b0: 71fe eb3b 8bba 683c 7e18 293c 5d38 683b
-0.0043110335 0.004187011 -0.00096697663 0.0065077217 0.0042111482 0.0022998257 -0.007448977 -0.005323581
-0.001167774 8.6691e-05 -0.0016712525 0.001904007 0.0058626276 0.0017497633 -0.0054659955 0.0011354538
0.0036540516 0.0005777078 0.009402535 -0.0046334146 0.0076936707 0.008591705 0.006288144 -0.005627483
-0.0029457277 -0.006116758 0.0032402924 -0.0027069878 6.803888e-05 -0.0014528865 -0.0051906006 0.002203809
-0.0006609835 -0.002706107 0.0042085545 -0.005899918 -0.009358623 0.0011844607 0.0021081825 0.0021290518
0.00096964464 -0.00014772755 0.016513638 -0.0051431777 0.0072019626 0.014204632 0.010320781 0.0035433986

expanded_conv_9/depthwise/BatchNorm/FusedBatchNormV3;model/MobilenetV3tiny/StatefulPartitionedCall/expanded_conv_9/depthwise/BatchNorm/FusedBatchNormV3 f4 [48]
00000000: a2e4 673b 5d41 033c ca82 a63b 621d d53a
00000010: 50cf ddba 8ad6 61bb 1a5e 943b ccc3 78bb
00000020: 4832 3b3b 3a78 01bb f087 733b ffd2 003a
00000030: 0cda 3b3b 9091 d6ba 9bbf a8ba 708f efba
00000040: 5623 d4bb ea04 e93b 329c 98ba 42d8 8dbb
00000050: 1856 20bc fa58 63bb 7730 c3bb 8e25 4d39
00000060: da64 d43a 86bf bf3b 4ed9 b63b 3d66 9b3b
00000070: 2c90 5bba 2029 b2b9 6abb 503a a6d6 f93b
00000080: 24c6 edbb e1d1 943b ccd7 a4ba 96ce dfba
00000090: a026 60bb 7ddf e53b 4de4 f8bb d7e8 4fbb
000000a0: b6ea 4e3b c46a af39 e941 a83a f21e cabb
000000b0: cb9c a43a 1c6b 033c 4e15 763a acf9 c13b
0.0035384079 0.008011189 0.0050815092 0.0016259367 -0.0016922746 -0.003446015 0.0045278193 -0.00379585
0.0028563906 -0.0019755499 0.0037159882 0.00049142534 0.0028663902 -0.0016370285 -0.0012874486 -0.0018277001
-0.006473939 0.0071111815 -0.001164323 -0.0043287585 -0.009786151 -0.0034690485 -0.005956705 0.00019564314
0.0016204373 0.005851689 0.005580104 0.0047424124 -0.00083756703 -0.00033981446 0.0007962497 0.007624465
-0.007256286 0.004541621 -0.001257652 -0.0017075117 -0.003420271 0.0070151673 -0.007595575 -0.0031724477
0.0031573004 0.00033458148 0.0012837026 -0.0061682397 0.0012558935 0.008021142 0.000938733 0.005919656

MatMul;model/distilled_output/StatefulPartitionedCall/MatMul f4 [2, 512]
00000000: c327 f63b bfa5 c2bc 67fb 99bd e827 6cbd
00000010: 2178 373d e442 9a3d dc2b 6e3d adc9 46bd
00000020: 9957 463d d111 853d 1c7c 8f3c 0048 a2bd
00000030: 6603 e43c 457c 5e3d c10c d43d ccd5 19bc
00000040: 52b0 94bd e5f7 36bd d291 b93d 8beb d9bc
00000050: 792e 623d fbdd 71bd 581d 2a3d a520 12bc
00000060: 287c 913d 33f8 573d 46de a3bd 3b7b 663c
00000070: 44bb 663d f3df d23c 3009 733c 55ec 9dbd
00000080: 969f 503d 6ce4 02bb 2675 6a3d b928 43bd
00000090: bd85 113d 3aa2 3d3d 0675 013c ed5c 8dbd
000000a0: 7704 b5bd 1507 2b3d b613 b13d d260 99bd
000000b0: 7657 613d ea0c 3fbd 4f72 7fbd cc7b 13bd
000000c0: 8de5 8fbd 251e 87bb dbd6 6e3d ecb3 c7bd
000000d0: 45ce 0dbd 4ce9 d03b 0d0d eabc 61e3 85bd
000000e0: 241d f5bc b52c 933d 1aac e1bd 55f4 90b8
000000f0: 7f72 cb3b 3d47 80bd aa5d a13b 9bbc 9d3d
00000100: faed 1f3d 62b1 56bd 5d35 c2bd 7da2 973b
00000110: cd8b 38bd e0dd c6bd 0eea e63d be59 87bd
00000120: 5a8b 723d 425c 9d3d 6d33 513d f3d2 94bd
00000130: cb77 603d dfdb 7ebd df71 13bd 8ac9 883d
00000140: a44a b6bc 49b2 78bd 74ff 57bd 3fe3 8d3d
00000150: 2c46 c83c 3aee a53d dbf9 90bd d621 813d
00000160: cacc 613d dee0 84bd 406e 913d 353a 2fbd
00000170: 7ff9 6cbd cd09 7f3d aa42 743c 4ab1 443d
00000180: 5876 9fbd 27d5 433c 3448 973d d09d 6ebd
00000190: 19da 063d 77ae a3bc eaaa c33d 83e5 4fbd
000001a0: 4f03 b3bd 9c1c 503d 4894 8f3d 61ed e7bc
000001b0: ba4d 7fbd 9fe8 91bd 80ce 2f3d eca8 12bc
000001c0: 6ded 94bd c571 803d fe05 b63b f350 59bd
000001d0: bdc8 ff3c c39c c13d 8cc8 0fbd 0684 1fbd
000001e0: de65 873c 8f69 973d 3fdb 583d 0624 eb3c
000001f0: cb56 663c 83f9 13bd a335 463b 87c8 f93d
00000200: 6fe4 003d 50e8 93bd 4b59 bfbc b956 4d3c
00000210: 027f 143c ef6b 21bd 6494 8b3c 5bd2 cbbd
00000220: 94bb afbc 95bf b0bd 9f53 153d b28b d93c
00000230: c555 8ebd 4aa0 333d e96c acbd 6853 adba
00000240: 0010 2bbd 5d9d a7bd dd17 4fbd ff16 d0bc
00000250: c76f d1bc a870 8dbc f7c3 fbbc 7f0f 6ebd
00000260: 4b9c bfbd 6640 22bc 8bc5 863c 455f 19bd
00000270: 359a 90bd c4ad c73d b1e7 a3bd dc56 88bd
00000280: 3da3 30bd 10b6 dcbd a517 bf3d 0313 2cbd
00000290: c223 073d 5ccc 57bd 0186 c1bd 7703 203d
000002a0: 2c10 7abd 8731 c4bc ef71 e93d 7dbd a7bd
000002b0: 1f58 93bb 1f42 123d 9be5 453c 21ab aabd
000002c0: 71d4 30bd c65b 25bd 1d4f 1c3d df59 243d
000002d0: a479 8bbd 4f78 a23d f10d cdbd 66e4 a53d
000002e0: fade e33c 68af 8fbd 95cb 00bd b27a 6b3d
000002f0: 3974 1d3d 9db4 cb3c 56bc c7bc c535 943d
00000300: 7b26 5a3d 9e9a 30bd a11f ebbd 16c1 53bd
00000310: 437e cf3a 65e4 50bd cf02 44bd 1bc8 953b
00000320: 3769 723d 2aa5 7cbd 407e 1e3d af2e 73bc
00000330: 8f5f 83bc 3b92 4fbd 3de9 c0bc d75f ed3d
00000340: 6b24 8c3d 9de3 74bd b50b 18bd 43a9 a63c
00000350: b10e 25bd 8c30 b83d ea9e cb3c aad2 bd3a
00000360: cf4d d2bc 8961 febb d16e 90bd 07a6 95bc
00000370: 05aa c5bd ef55 2fbd bbef 113d 9a0f b4bd
00000380: 43c5 4cbd 81c1 eb3d b2e7 3d3d e7c9 863d
00000390: ab56 8bbd a066 89bd 5f29 743d cd6e 24bd
000003a0: 4568 a43b 8645 49bc 040e edbd 2926 08bd
000003b0: 8545 95b9 aa5a 9abd 9159 84bd 5956 203d
000003c0: 956e 7b3b 2b7f a53d 285f 0b3d 715c 2a3d
000003d0: 9f32 c6bd f559 923d 2c87 48bd 9a48 723d
000003e0: 5a52 5cbc 26b0 b53d 06b3 babd ab87 7cbd
000003f0: 98fa cf3c 8bd0 503d cad2 833d 0e5b dcbd
0.007512064 -0.023760675 -0.07518654 -0.057655245 0.0447923 0.075322896 0.058147296 -0.048532177
0.048423383 0.06497539 0.017515235 -0.07923889 0.027833652 0.05431773 0.10353995 -0.009389352
-0.07260193 -0.044670004 0.09061016 -0.026601573 0.0552201 -0.059049588 0.04153189 -0.008918916
0.07103759 0.052726936 -0.0800138 0.014067466 0.056330934 0.025741553 0.014833733 -0.077110924
0.050933443 -0.0019972576 0.057240628 -0.047646258 0.035527933 0.04629729 0.007901436 -0.0690249
-0.08838742 0.0417548 0.08646338 -0.0748917 0.05501505 -0.046643175 -0.062364873 -0.036006734
-0.07026205 -0.0041234666 0.05831037 -0.09751114 -0.034620542 0.0063754674 -0.028570676 -0.0653751
-0.029921122 0.071862616 -0.11019154 -6.9119655e-05 0.0062087174 -0.062635876 0.0049244957 0.07701989
0.03904531 -0.05241526 -0.094828345 0.0046275244 -0.0450552 -0.09710288 0.11275111 -0.06608914
0.059214927 0.076836124 0.051074434 -0.07266798 0.054801743 -0.062221404 -0.035997268 0.066790655
-0.022252388 -0.0607169 -0.052733853 0.069281094 0.024447523 0.08102079 -0.07078906 0.06305282
0.055126943 -0.064882025 0.07101107 -0.04278012 -0.057855126 0.062265206 0.014908472 0.04802064
-0.07786244 0.011952675 0.073868185 -0.05825597 0.032922838 -0.019980652 0.09554084 -0.05075599
-0.087408654 0.050808534 0.07010704 -0.028311433 -0.062329985 -0.07124447 0.042921543 -0.008951407
-0.07271848 0.062717 0.0055549135 -0.053055715 0.03122365 0.09453728 -0.035103366 -0.038944267
0.016528066 0.073931806 0.052943464 0.0287037 0.014058779 -0.036126625 0.0030244372 0.12196451
0.03146785 -0.072220445 -0.023358008 0.012532883 0.009063484 -0.039409574 0.017038532 -0.099522315
-0.021451749 -0.086302914 0.0364567 0.02655587 -0.06949953 0.043854035 -0.084192105 -0.001322371
-0.041763306 -0.081843115 -0.050559867 -0.02540159 -0.025565995 -0.017265633 -0.030733092 -0.058120247
-0.093559824 -0.009903049 0.016451618 -0.03744437 -0.07060663 0.0974994 -0.08003176 -0.06657192
-0.043124426 -0.10776913 0.09330682 -0.04201032 0.032993086 -0.052685127 -0.09449387 0.039065804
-0.06105058 -0.023949398 0.11398684 -0.08190439 -0.004496589 0.03570759 0.012078668 -0.083334215
-0.04317135 -0.040370725 0.038161386 0.04012477 -0.068103105 0.07933103 -0.10012425 0.08100204
0.027816284 -0.07015878 -0.03144415 0.05749006 0.038440917 0.024866397 -0.024381798 0.07236818
0.053259354 -0.043116204 -0.11480642 -0.051697813 0.0015830476 -0.050999064 -0.04785424 0.0045709736
0.059182372 -0.06168095 0.03869462 -0.014842673 -0.016036777 -0.050676566 -0.023548717 0.115905456
0.06842884 -0.05978738 -0.03712054 0.020344382 -0.040297214 0.089936346 0.02485605 0.0014482338
-0.025671868 -0.007763092 -0.070523866 -0.018267645 -0.09651569 -0.042806562 0.035629015 -0.08792038
-0.04999281 0.11511517 0.04636354 0.065814786 -0.0680364 -0.06709027 0.059609767 -0.04014473
0.0050173127 -0.012284642 -0.11574939 -0.033239517 -0.0002847129 -0.07536824 -0.06462396 0.039144848
0.0038365473 0.08080896 0.034026295 0.041592065 -0.09677624 0.07146064 -0.048957035 0.05915127
-0.0134473685 0.08871488 -0.09116177 -0.06165282 0.025388047 0.050980132 0.06436689 -0.10759555

MatMul_1;model/distilled_output/StatefulPartitionedCall/MatMul_1 f4 [2, 2]
00000000: 5961 60bf 78bc 63bf 74df 7d3f a947 49bf
-0.8764854 -0.88959455 0.9916909 -0.7862497

Conv/Conv2D;model/MobilenetV3tiny/StatefulPartitionedCall/Conv/Conv2D f4 [16, 3, 3, 1]
00000000: 6d3b e53d 76b7 333e 9084 37be 96da 23be
00000010: b698 ad3d e898 713d 44ad 26bd 6b1a 56be
00000020: bfa7 99ba 2d2e c23d cd95 e9bd 3f1a 84bd
00000030: 3fe3 0b3d 302c 43bd ee5e cebd 6db0 c3bd
00000040: f5ae 343d b6da 9d3d 6203 61be 3fc1 323e
00000050: 8d3e 4b3e 707f ef3d 1902 183e de2d 903d
00000060: 9283 3c3e eb8b 17be 5f7d ecbd b89a 54be
00000070: 9cec 5a3e f9fb e8bc 0817 c33b b80e 44be
00000080: 02d6 4a3e 4dfc 25be 790c e8bd b109 0cbe
00000090: 7f3b 15be 2e78 69bd 9405 313d c2fc 423e
000000a0: 4e4d fc3d a46f 0f3e 8707 4fbe 60ee 573e
000000b0: 4a36 423e 5e86 0b3c 5262 473b ebf7 2c3e
000000c0: f005 013e 4ff3 88bc 41f6 45be ca7b 363e
000000d0: 11e4 18be 36b7 393c 01b9 24bd 5cce 013e
000000e0: 36ff 43bc 0927 50be a0ec 0cbd d987 b53d
000000f0: 491b 7fbd 5252 17be 1591 ae3d 05c7 7139
00000100: 594b f93d 0932 31be 3296 083e 58d2 4d3e
00000110: fa95 53be 716c b0bd 1fb6 7dbd 2590 f5bd
00000120: 25bc 38bc 8b28 3a3e 7590 ae3d a592 60bb
00000130: 51cb 4f3c a70b 23bd fd43 023d e391 a43c
00000140: e88d 70bd 3117 183d f65e 34be 463c 11be
00000150: c1c8 3f3d 2fbf b73c 9812 5bbe 6b13 3fbd
00000160: ce9b 4a3d 0687 a53c 8c73 0fbe eeca e63b
00000170: e9fd c1bd 845b 233e 1bcc e1bc da7e 2b3d
00000180: 3bfb 05bd ca03 573d 724a 293d 4210 983c
00000190: 35a6 1a3e 5792 c9bd 54f9 b73c 9b7f 49bd
000001a0: 4d07 a53c 6bfd 6cbd 7546 183d 5ae7 68bd
000001b0: 5141 b63d 219b 14bb e917 d0bd 385e 313b
000001c0: 19a8 eebd bd7f 49be f847 863b 01df 82bc
000001d0: 5e56 0a3e 4ba6 88bc 1999 adbc ff38 283e
000001e0: ec07 f43c e0cf 91bd 672c 063e c473 37be
000001f0: 2c85 4b3e 27bf 993c 5453 ec3d c921 b43d
00000200: 9632 1bbe 5c98 fcbd 996d 2dbe 9ab0 30be
00000210: b97e 403e 2045 333e 9be2 87bd df73 163e
00000220: de05 453e 2c08 0a3e 4308 463e bd53 173d
00000230: bbae 5bbe f076 34bd 76ee 3d3e 737a 4ebe
0.11192975 0.17550454 -0.17921662 -0.16001353 0.08476393 0.058983713 -0.040692583 -0.20908515
-0.0011722966 0.094814636 -0.11405525 -0.064503185 0.034152266 -0.047649562 -0.100767 -0.09555135
0.044112165 0.077077314 -0.21973947 0.1745653 0.1984808 0.11694229 0.1484455 0.070399985
0.18409565 -0.14799468 -0.1154735 -0.20762146 0.21379322 -0.028440462 0.0059536733 -0.1914624
0.198082 -0.16209526 -0.11330504 -0.13675572 -0.14573477 -0.056999378 0.04321821 0.19041732
0.12319432 0.14007431 -0.20217715 0.21087027 0.18966022 0.008515922 0.0030423594 0.16891448
0.12599921 -0.016717581 -0.1933222 0.1782066 -0.1493075 0.011335185 -0.040215496 0.12676376
-0.0119627025 -0.2032739 -0.03440535 0.088638015 -0.06228188 -0.14777496 0.08523766 0.00023057692
0.121725745 -0.17304243 0.13338545 0.20099771 -0.2066268 -0.086144336 -0.061941262 -0.11990384
-0.011275326 0.18179528 0.08523647 -0.0034267094 0.012682752 -0.039806034 0.03180312 0.020089095
-0.058729082 0.037131492 -0.1761435 -0.14183149 0.046822313 0.02243003 -0.21393812 -0.046649378
0.049464993 0.020205986 -0.14008921 0.007043234 -0.09472258 0.15952879 -0.027563145 0.041869022
-0.032710295 0.052493848 0.041330762 0.01856244 0.15102465 -0.09842365 0.022457756 -0.04919396
0.020145083 -0.057858866 0.037176568 -0.05686126 0.08899177 -0.0022675472 -0.101608105 0.0027064215
-0.11653156 -0.19677635 0.004097935 -0.015975477 0.13509509 -0.016680857 -0.021191167 0.16427992
0.029788934 -0.07119727 0.13102876 -0.17915255 0.1987502 0.018767906 0.11539331 0.087955065
-0.15156016 -0.12333748 -0.1693634 -0.17254868 0.18798341 0.17506838 -0.066350184 0.14692639
0.1924052 0.1347968 0.19339089 0.036945093 -0.21453373 -0.04405874 0.18547997 -0.20163898

expanded_conv/squeeze_excite/Conv/Conv2D;model/MobilenetV3tiny/StatefulPartitionedCall/expanded_conv/squeeze_excite/Conv/Conv2D f4 [8, 1, 1, 16]
00000000: 53da 6f3e 38d3 f3be a3ce bfbe 01c7 9fbe
00000010: 8650 ff3e 5cd0 e23e 5a5f 743d 794b ff3e
00000020: 154e 673d 9da7 b33e dc68 7abe 0a7b aebd
00000030: 4327 ad3c f74e 333d ce7e 913e 9ca1 afbe
00000040: 13e5 f13e 61e8 613e caaf bc3d 00b7 553e
00000050: fa20 85be 5379 f43e e95a ea3e de25 8b3d
00000060: 85ad f5be 6932 ec3e 3b50 8bbd e666 a2be
00000070: 7d05 f4be a120 62be 7ae9 bd3e 8fe1 c73e
00000080: e732 55be 7489 de3e 717f eb3e 2ec4 0ebd
00000090: a026 dfbe 06d5 b8bd e58e 913e be5a 5ebe
000000a0: 070d 6c3e 0664 8e3e 6b80 cb3e baad bfbe
000000b0: b2db 663e a270 a03d 1f10 0b3e 0b61 88bd
000000c0: 30eb d1bd c842 7bbe f089 c9be 8027 553c
000000d0: 60a2 53bd 3839 9dbe 00c1 04be d0e2 b53d
000000e0: f02a 04be f0d4 603e b025 b6be 1c0c b03e
000000f0: 4824 a43e 40b1 c53d 643b bebe 4814 c03e
00000100: 471f 8abc 45cd ddbe 062b dc3b 31c3 5bbe
00000110: a64d 9e3d c3db aebe be68 cdbe 1f54 e63d
00000120: d38b fd3e 5114 e33c 99c0 abbe 1c34 94be
00000130: b122 29be 48d2 f5bd ed05 d83e da0a 8a3e
00000140: 7477 efbe 681d a6be f891 c8be 0067 963c
00000150: 3c8d 8f3e 2025 663e 887b 6e3e 90cd cebd
00000160: 8010 f13d 30db 003e 403f 9e3c 30d7 523e
00000170: 4c48 d2be 786d 003e a4b1 f6be 901a 9cbe
00000180: bc15 b53e 481e 46be 1873 cabe a8bc 1f3e
00000190: 387c 3ebe 4463 cc3e 8cb6 a9be 0865 f93e
000001a0: 700e b5be a092 7ebe 18ba 7dbe 1806 40be
000001b0: 8480 c43e 2c2f eebe 606c 70bd 901e 363e
000001c0: c01a c43c d4ea a9be 4005 f8bd 4032 683e
000001d0: 68db fcbe ec91 c93e 14eb ec3e 18d2 aebe
000001e0: 5047 adbd 54fd c8be 20f5 91be fc5b ed3e
000001f0: 2073 35bd f479 85be 9030 f1bd 2839 cfbe
0.23423128 -0.47622085 -0.3746234 -0.31206515 0.49866122 0.4429959 0.059661247 0.4986227
0.05647095 0.35088816 -0.24454063 -0.085195616 0.021136886 0.04377648 0.28417057 -0.34302986
0.47245082 0.22061302 0.092132166 0.2087059 -0.26001722 0.47748813 0.45772484 0.06794332
-0.47983947 0.4613221 -0.06802412 -0.3171913 -0.47660437 -0.2208276 0.3709219 0.39039275
-0.20820199 0.43464243 0.45995668 -0.03485506 -0.43584156 -0.09025006 0.28429332 -0.21714303
0.23051845 0.27810687 0.39746413 -0.3743723 0.22544745 0.07833983 0.13580368 -0.066591345
-0.102499366 -0.24537194 -0.3936305 0.013009906 -0.051668525 -0.30707717 -0.12964249 0.08881152
-0.12907004 0.21956229 -0.35575628 0.3438424 0.3205893 0.096529484 -0.37154686 0.37515473
-0.016860617 -0.4332067 0.006718996 -0.21461178 0.07729654 -0.3415204 -0.40118974 0.112465136
0.4952074 0.027719649 -0.33545378 -0.28946006 -0.1651714 -0.120029986 0.4219202 0.26961404
-0.46770823 -0.3244431 -0.39173865 0.018359661 0.2803744 0.224751 0.23289311 -0.10097802
0.11770725 0.12583613 0.01931727 0.205899 -0.41070783 0.12541759 -0.48182404 -0.30489016
0.35368145 -0.19347489 -0.39540935 0.1559931 -0.18602073 0.39919484 -0.33147085 0.48709893
-0.35362577 -0.2486062 -0.2477802 -0.18752325 0.383793 -0.46520364 -0.058697104 0.17785096
0.023938537 -0.33186972 -0.12110376 0.22675419 -0.49386144 0.39369142 0.462731 -0.34144664
-0.084608674 -0.39255774 -0.28507328 0.4635924 -0.044299245 -0.26069605 -0.11776841 -0.40473294

expanded_conv/squeeze_excite/Conv_1/Conv2D;model/MobilenetV3tiny/StatefulPartitionedCall/expanded_conv/squeeze_excite/Conv_1/Conv2D f4 [16, 1, 1, 8]
00000000: 54ed 083e 5188 e3be 9d2a 0e3e f49d fd3e
00000010: f258 e5be b079 d93d 608f 413e a4ca f53e
00000020: f279 e93d 30bc e1bc 9bc7 cf3e ec4b c73e
00000030: fd0e ed3d a8c9 e53e d0fa 603e 54db c8be
00000040: 37b8 2e3e c564 e6be 6d94 f0be 402b 6d3d
00000050: f99a 833c 3098 c23d 80ca 89bc c4bf c93e
00000060: ce77 e13d 6274 493d af29 79be 4814 a83e
00000070: 22c3 dfbe f468 9cbe 4823 d63e 789e 1cbe
00000080: 1a5f c43e 8d70 79be 9855 30be 80a0 e83d
00000090: 1dd8 ca3d 6007 f53d d8ed c53e 803f c4bd
000000a0: 478a 3c3e 4d6c 9f3e 257b f43e a8e9 a0be
000000b0: 4473 633c 58c4 783e 8076 4f3c 80ea d03d
000000c0: 5f98 d2be 55f5 b1be 85ad d73d d010 dd3d
000000d0: 0c80 9a3e e876 853e e0e4 63be 58b9 ec3e
000000e0: a898 a5be 9a92 6fbe 56b3 6e3e 8c4c bd3e
000000f0: f216 b23e 0028 cbbe e864 3ebe 1c8d c43e
00000100: 2dff 683e 1f0d e4be 8eee f13e 28f4 a13e
00000110: 0e97 df3e e096 88be c464 96be b810 4a3e
00000120: 0e37 e3bd 898e ab3c e4e9 2c3e 9060 b5be
00000130: a76c 93be c0fd 843d 18a5 9a3e 2887 af3e
00000140: 31f9 79be a34c 8b3d 113e 463e a8e1 efbe
00000150: f5da 113d 207f 28be a04c 16be d06b f6be
00000160: 63cd d83e 9950 0dbe ae73 973e 9004 c03e
00000170: f349 4fbe c002 1fbe a4d4 d0be 5446 fb3e
00000180: 2da4 a8bd fed0 d1bd 1f44 d2bd 0022 3a3b
00000190: 76ce 95bd 587b 3dbe 685c dc3e 005d 1c3d
000001a0: 9bbc dc3d 96cd c73e de0d d43d 0067 06be
000001b0: f209 87be f056 e4be 603f 87bd e879 183e
000001c0: cfae 35bc 4ea0 adbd 8b85 323e e0ae a8be
000001d0: a905 143e 98b1 763e 44b8 92be 8cfe fd3e
000001e0: 7172 c53e c565 f93d 8ae5 56be a097 dabe
000001f0: 43ec 2b3e 6cd4 eb3e bcad e3be 04a9 a73e
0.13371783 -0.4443994 0.13883443 0.4953457 -0.44794422 0.10618913 0.1890235 0.48006165
0.11400212 -0.027555555 0.40581974 0.3892511 0.115751244 0.44880414 0.21970677 -0.39229834
0.1706246 -0.44998756 -0.4698824 0.057902575 0.016065108 0.09501684 -0.016820192 0.39404118
0.11009179 0.049183257 -0.24332307 0.32827973 -0.43703562 -0.30548823 0.41823792 -0.15294826
0.38353807 -0.24359341 -0.17220151 0.11358738 0.099045016 0.11964297 0.38658023 -0.09582424
0.18412124 0.31137314 0.47750202 -0.31428266 0.013882462 0.24293649 0.01266253 0.10200977
-0.41131875 -0.34757486 0.10531143 0.10794222 0.30175817 0.2606728 -0.22255278 0.46235156
-0.3234303 -0.23395768 0.23310599 0.36972463 0.3478313 -0.39678955 -0.1859318 0.38388908
0.22753592 -0.4454126 0.47252315 0.3163159 0.43669933 -0.26677608 -0.29373753 0.1973294
-0.11094485 0.02094199 0.16886097 -0.35425234 -0.28793833 0.064937115 0.30204082 0.34282804
-0.24411465 0.06801727 0.19359614 -0.4685185 0.035609204 -0.16454744 -0.14677668 -0.4812913
0.42344198 -0.13800277 0.29580444 0.3750348 -0.20243053 -0.15528393 -0.40787232 0.49077094
-0.08234439 -0.1024494 -0.10266899 0.0028401613 -0.0731477 -0.18504083 0.4303925 0.03817463
0.10778161 0.39024037 0.103542075 -0.13125229 -0.26374775 -0.44597578 -0.06603885 0.14890254
-0.011089041 -0.08477841 0.17433755 -0.3294592 0.14455284 0.24091184 -0.2865621 0.49608266
0.38563874 0.12177614 -0.20986 -0.42693806 0.16789345 0.46060503 -0.44468486 0.32746136

expanded_conv/project/Conv2D;model/MobilenetV3tiny/StatefulPartitionedCall/expanded_conv/project/Conv2D f4 [8, 1, 1, 16]
00000000: 32d4 a1be f403 b43c 391a 0b3e 0846 57be
00000010: f742 013f 2ea9 77be c40a a73d 6c45 053f
00000020: e320 50be aedf 56be b050 f43e 8fb0 9fbd
00000030: b489 1e3d ee43 cabd 0b5a 41be e5cc 9e3d
00000040: b7a8 a83e 60dc f5bc 218d e63e 05f9 a73e
00000050: 0571 0abf 9243 d4bc 368e e4bd 4f3f 453c
00000060: 7ae1 473e 5a05 89be 98cf ddbe c10e debd
00000070: 83e2 e43e 7c93 063f 1aa2 babe 02a9 aebe
00000080: b45f 84be 3da4 0e3e a878 75be c447 6f3e
00000090: cf0c 563e efd2 bc3e af32 58bd de49 eabe
000000a0: 8c40 b13d 54f3 babd b4e1 b3be 3ecd 16be
000000b0: ad11 0dbf 6cf3 a43e 23c3 aabe e037 0c3f
000000c0: 9fdb fc3e d53f 55be 45ca ffbd abc4 e8be
000000d0: 7c4d c9be 2e6f 523e 0709 46be cd8a 03bf
000000e0: 2584 95be 3e83 e9be c308 48be 8b4f 313e
000000f0: 4793 5f3e e360 f23e 2a05 a83e fea6 09bf
00000100: cf42 bfbe 69aa 29be 58a9 ec3e 4801 05bf
00000110: 53c5 613d be54 013e 69a0 9fbe b8a5 7e3e
00000120: 31d0 86be b4fb d93e e181 0b3f f558 61be
00000130: aaea 0abf 5891 0bbf 6b92 3ebd c0c1 ddbe
00000140: 6c3f f43e 7ea7 833e 3945 edbe b750 033f
00000150: edee 233e bb69 6b3e de3b 5a3e d66c 69be
00000160: 0266 bf3e d547 e43e 05e3 cd3e df01 51be
00000170: 52ed c53d d4b5 36be 8bc7 f03c 675f a03e
00000180: 3feb 2cbe 2608 d33e 4e17 86be b80f 84bd
00000190: cf24 fdbe 05ae 593e abae 2b3e 4165 c8be
000001a0: 724b 5ebe c05d d3be d4f8 2c3d 0d79 48be
000001b0: 9266 59bd 682d 83be 653b f8ba 7ba1 1a3e
000001c0: 161f 303e 1466 57be 3cac ab3e 5e24 c93d
000001d0: 5c10 e53e 1c3a d23e 22f5 613e 58f9 133e
000001e0: 5548 06bf fc66 93bd abd7 a2be b7dd adbe
000001f0: 0bc0 debc 03d6 1abe 47aa f3be cc54 103d
-0.31607205 0.021974541 0.13584222 -0.21022809 0.50492805 -0.2418563 0.0815635 0.52059054
-0.20325045 -0.20983765 0.4771781 -0.07797348 0.038705543 -0.09876238 -0.18882005 0.07753924
0.3294122 -0.03001231 0.45029548 0.32807174 -0.54078704 -0.025911126 -0.11159937 0.01203902
0.19519606 -0.26761895 -0.43322444 -0.10842658 0.44704065 0.52568793 -0.364518 -0.34113318
-0.25854266 0.1392984 -0.23971808 0.2336722 0.20903324 0.3687968 -0.05278271 -0.4575948
0.086548895 -0.091284424 -0.35133135 -0.14726731 -0.55105096 0.32216966 -0.33352003 0.5477276
0.49386308 -0.20825131 -0.12489752 -0.45462546 -0.39316928 0.20550224 -0.19339381 -0.5138367
-0.2920238 -0.45607942 -0.19534592 0.173155 0.21833526 0.47339544 0.3281644 -0.53770435
-0.37355658 -0.16568913 0.4622295 -0.5195508 0.055119824 0.12629983 -0.3117707 0.24867904
-0.26330712 0.42574847 0.54495054 -0.2200659 -0.5426432 -0.5451865 -0.046526354 -0.43311882
0.47704637 0.25713724 -0.46341875 0.51295036 0.16009112 0.22989552 0.213119 -0.22795424
0.37382513 0.44586053 0.40212265 -0.2041087 0.09664406 -0.178428 0.029392025 0.31322786
-0.16886614 0.41217154 -0.26189655 -0.064483106 -0.49442145 0.2125779 0.1676585 -0.3913975
-0.21708468 -0.41282463 0.04222949 -0.19577427 -0.053076334 -0.2562058 -0.0018938599 0.15100662
0.17199358 -0.21035033 0.33529842 0.098213896 0.44739044 0.4105996 0.22066167 0.14450586
-0.5245412 -0.07197377 -0.31805167 -0.33958218 -0.027191183 -0.15120701 -0.4759085 0.03523712

expanded_conv_1/expand/Conv2D;model/MobilenetV3tiny/StatefulPartitionedCall/expanded_conv_1/expand/Conv2D f4 [40, 1, 1, 8]
00000000: 08ee 23be c919 b1be 468f b1bd bf52 173e
00000010: 959c 903e 6e87 173e 6cb4 b83d a008 993b
00000020: 226b 4f3d a98d 3d3e 9f40 d53c ec41 26be
00000030: bb08 babe 415e 493e 86f7 1bbe 1051 b53e
00000040: 734c 4bbe de5f 2e3d d236 01be 8cd0 ac3e
00000050: 97bc 843e 469b ab3d 3101 853e 01e8 9dbe
00000060: aef0 043e 019a 773e 75c3 8d3e f0b9 883e
00000070: 7908 abb9 c108 323e a7d9 c53d ea45 443e
00000080: 6675 86be acce af3e b058 44bd 1f74 c13e
00000090: faa5 083e 1c3b e33d 3ae2 c3be 4caa b73e
000000a0: f4a7 193e d627 373e 8efa 56be 2b25 79be
000000b0: 2700 b9be 6e45 f4bd 96f1 a63e 7590 46be
000000c0: 2f9c c33e 816f 5ebe e748 acbd e2ab 7cbe
000000d0: e0a5 91be 6341 9abe 3fec ab3e ad3e e5bc
000000e0: 95e5 09be 098d 873e 77e6 e13d a9e9 dbbc
000000f0: b672 adbe 0317 56be 906a 26be 0eef 90be
00000100: 4488 393e 5ab5 8abd 86f6 6dbe 98c2 4f3e
00000110: aec7 2b3e 44af ba3c 39b0 b23d 0697 903e
00000120: 7941 55be 22c7 9e3e b151 503d b7ef 03be
00000130: 9708 6f3e 29ac 523e 8d41 d5bc 220b 19be
00000140: 180a 7fbe 23ac e43c 5ae9 7dbe 9087 973d
00000150: 0a18 183e 102d 77be deba 26be 2faf 923e
00000160: 8eb2 2a3e 8e67 fbbd 22c4 873e 56dd 78be
00000170: 50ca 803e e315 1d3e 27c0 9bbd b47c 823e
00000180: e545 07be 2473 41be 1f67 9d3e e6ee b3be
00000190: 7d1f a8be a9a0 b4bc 91d7 343e a2f9 4abe
000001a0: 4055 823e 352a 2f3e 5996 c1bd abaa abbe
000001b0: 94bf 68be 9dcd 0bbe 8313 1c3b d378 a63d
000001c0: 622e ba3d 16bc f1bd e0df 533e 2388 3cbd
000001d0: 5568 283e c555 a6be 4fd0 783e 8a96 f1bd
000001e0: e5d2 c9bd 8cd3 763e d3c0 1cbd 3d61 153e
000001f0: 9941 0f3e 4085 8c3e 6d6e 983d b8a7 40be
00000200: 9220 adbe c7e9 5abe 18ff 23be 21ac c23d
00000210: 9fb5 a23e 60ca 0c3e 962f 963e 5b7f b43d
00000220: 92ea b43e 5f07 f23d 9daf 863e 8ba4 a23e
00000230: 0530 03be 58bc 98be c022 96bd 40e3 343e
00000240: d28b 6bbe 989e 613e 845a 49be e6ec 313e
00000250: 93c5 9b3d d403 133e c6c2 623e bdff 8dbe
00000260: 1b4b a6be 2d31 ef3d cecc 72be 0d7c 2dbe
00000270: d904 723e 8cbb 223e d3c5 57bb 50d3 f43b
00000280: f64f a93e 156e e63d 0816 563e b7ee 71be
00000290: 42ab 9f3e 5194 763e 45cd 90be 04c8 793d
000002a0: db38 7b3e 691b c33d 6618 84be d106 73be
000002b0: f431 613e ae7d 81bd 239d 9fbe 8ff7 303e
000002c0: 871a 9c3d 9c56 763d 8b2e 99be e602 62be
000002d0: 407e fb3d fc9c 7bb7 5893 84be 008f 1c3c
000002e0: 3580 57bd bd77 dc3d 4639 753d a5bf 373e
000002f0: 424c 8c3e 4f53 8f3d fc5b 16be 4c28 9f3e
00000300: dc8e 883e af60 a43e 96a5 833e 00d4 a13e
00000310: 6684 9dbe 77c3 4c3e fe2c a73e 593a 15be
00000320: 18de bfbe 5a7c b7be b156 a8be 9a66 9cbd
00000330: a0e1 4ebe 0f98 69be 23e8 503e 80c1 3ebe
00000340: 46b9 29bd e54f 1b3e f7b6 813d fc98 c43d
00000350: 6292 44be 2543 d5bc ee66 ac3e 4dfa 3e3d
00000360: e04d 7d3e 693a c1bd d2c1 293c af1e dbbd
00000370: 3aee 9dbe 3db5 84be 1ecb a03e d8d1 3c3e
00000380: ef00 a6be c115 75bd 9e4d af3e a243 16be
00000390: a7fb ce3d 1dfc 983e e42b 37be dabc 8f3e
000003a0: adfb ad3e d1be 773e 163e 243e 020a 543e
000003b0: e886 353e 8426 a0be 9542 ddbd d348 6e3e
000003c0: 6995 b5be 8940 b03e 74fb 67be 59a3 263e
000003d0: 4201 b3be 5a15 763e 0340 1bbe 8741 823e
000003e0: 786e 7bbe 42cb 93be b53c 57be 930a acbe
000003f0: ab21 e7bd 9590 943e cf16 a43e 4126 7c3e
-0.1600877 -0.34589985 -0.08669905 0.14777659 0.28244463 0.14797756 0.09018788 0.0046702176
0.05063928 0.1851107 0.02603179 -0.16236085 -0.36334786 0.19664861 -0.15231141 0.35413408
-0.19853382 0.042571895 -0.12618569 0.3375286 0.25925133 0.083792254 0.2597747 -0.30841067
0.12982437 0.24179842 0.27688184 0.2670436 -0.00032621974 0.17386152 0.096606545 0.19167295
-0.26261443 0.34337366 -0.04793614 0.37783906 0.13344565 0.110952586 -0.38258535 0.35872114
0.15005475 0.1788629 -0.20994017 -0.24330585 -0.3613293 -0.11927305 0.3260619 -0.19391043
0.38205096 -0.21722223 -0.084123425 -0.24674943 -0.28446865 -0.3012801 0.3357868 -0.027983988
-0.13466485 0.2647479 0.11030286 -0.026844816 -0.3387658 -0.20907216 -0.16251588 -0.28307384
0.18118387 -0.06772871 -0.23238572 0.20289075 0.1677539 0.022788651 0.08725018 0.28240222
-0.20825757 0.310113 0.050859157 -0.12884413 0.2334312 0.20573486 -0.026032234 -0.14945653
-0.24906194 0.027914112 -0.24796048 0.07398903 0.1485292 -0.24138284 -0.16282222 0.2864928
0.16669676 -0.12275611 0.26516825 -0.24303183 0.25154352 0.1534038 -0.076050095 0.25485766
-0.13210256 -0.18891579 0.30742738 -0.35143203 -0.32836524 -0.022049265 0.17660357 -0.1982179
0.25455666 0.17105944 -0.09452505 -0.33528647 -0.22729331 -0.13652654 0.002381534 0.08128514
0.09090878 -0.11803453 0.2069087 -0.046028268 0.1644605 -0.32487312 0.24298213 -0.11796291
-0.09854678 0.24104136 -0.03826983 0.14587875 0.13989867 0.27445412 0.07442937 -0.1881398
-0.33813912 -0.21378241 -0.1601528 0.09505487 0.3177919 0.13749075 0.2933318 0.08813354
0.35335213 0.11817812 0.26305857 0.3176616 -0.12811287 -0.29831195 -0.07330847 0.17664814
-0.23002556 0.22033155 -0.19663435 0.17375526 0.07606044 0.14356929 0.22144613 -0.27734175
-0.32479176 0.116793014 -0.2371094 -0.16941853 0.23634662 0.15891856 -0.003292431 0.0074714795
0.33068818 0.11251465 0.20906842 -0.23626219 0.31185347 0.24080016 -0.28281608 0.060981765
0.24533407 0.095267124 -0.25799865 -0.23733069 0.21991712 -0.063227996 -0.31174573 0.17281936
0.07622247 0.06014119 -0.29918322 -0.22071418 0.1227994 -1.4997317e-05 -0.25893664 0.009555578
-0.052612502 0.10765026 0.059869073 0.179442 0.2740193 0.06998312 -0.14683527 0.31085432
0.26671493 0.32105014 0.2571227 0.31607056 -0.30765074 0.19996439 0.32651514 -0.14573039
-0.37474132 -0.3583706 -0.3287864 -0.07636757 -0.20203257 -0.22811912 0.20401053 -0.18628502
-0.041436456 0.15167196 0.06333726 0.09599492 -0.19196466 -0.026032994 0.3367228 0.046625424
0.24736738 -0.09434969 0.010361152 -0.10699212 -0.30845815 -0.25919524 0.31404966 0.18439424
-0.32422587 -0.0598352 0.34238905 -0.14674237 0.101065926 0.29879847 -0.17887837 0.2807377
0.33981076 0.24193884 0.16039309 0.20706943 0.17727244 -0.31279385 -0.10803715 0.23269968
-0.35465553 0.34424236 -0.22654516 0.1627325 -0.34961897 0.24031582 -0.15161137 0.25440618
-0.24553859 -0.2886601 -0.21019252 -0.33601817 -0.112857185 0.29016557 0.32048652 0.24623968

expanded_conv_1/project/Conv2D;model/MobilenetV3tiny/StatefulPartitionedCall/expanded_conv_1/project/Conv2D f4 [8, 1, 1, 40]
00000000: c834 83bd e022 953e 2c1e 873e 0989 d3bd
00000010: ad7c b23e 163e a4be 00af 7cbe 5180 a43d
00000020: b90c 3bbe bcf1 2d3e ec5a 20be 3ee0 f83d
00000030: cf2f ab3e 5adc 693d 59ad a63e 7b85 103e
00000040: 6034 8b3d a227 31be 623f 44be a00b 43bd
00000050: 219c 2fbd 188a e03d c5a8 97bd fb6a 8ebe
00000060: 9edb 863e 9c15 7e3d 839f 3a3e c149 a1be
00000070: 3023 803d c402 523d ad53 0c3d 3225 c0bc
00000080: bf0b 893e 394e 62be 4ad4 cb3d b293 7d3e
00000090: e77c 27bc 579e 3ebc 924a 753e 0ffe bd3e
000000a0: 9dc7 b63e 1ec2 97be b129 e13d 6f44 0d3e
000000b0: 6271 c73d 1547 743d cd16 4e3e 0a2d 0abe
000000c0: ec70 213e 3ada 53be e38c d5bc 438b 223e
000000d0: 07a1 43be b3dc 4c3e 1b50 b83e 0b34 6a3e
000000e0: 6c48 593e 4946 96bd e8fa 493c 287e 20be
000000f0: 7042 5c3e 6911 a8be c7c8 80bd cc6e a9be
00000100: 1cd4 bf3d c7ba 4a3e 643b 3e3d 96ee 8cbe
00000110: 2de6 e73d f961 3a3d 9a76 82be e9c0 733e
00000120: 22af 883e 1de7 c03d 132a 073d f588 0abe
00000130: 49bf b7be 8ae6 46be 757d b5be 22eb bbbe
00000140: be57 2abd e354 fcbd 5d92 663e d5fe f2bd
00000150: a05b d33d 6179 a7be 8b11 013d 0021 25bd
00000160: f560 8e3e f01f 673b 4675 8c3e bf02 903e
00000170: a72d 2bbe 50b2 553e 0a79 81bd c4bc 9dbc
00000180: d1f6 893e 620e a1bc 9204 6e3e 5947 2ebd
00000190: 9188 2bbe 1d18 383e 59bf 8fbd 3503 313e
000001a0: da7f 3b3e 333e 4bbe 2257 8bbe 88db a83e
000001b0: 9463 a93e 7548 613e d065 9cbe beef 8d3e
000001c0: a2b3 61bd 84c8 593e eb69 913e e5f9 b43d
000001d0: 226a e6bd ce9f 2e3e 4579 50be 580f 663e
000001e0: 63ff 3abd 9172 a6be 15a2 2d3c e542 053e
000001f0: 4e95 84be f325 303e f179 613e f825 423d
00000200: 2a2a 133e 8b50 2e3e b097 50be b061 793e
00000210: a1d4 abbe 4218 3bbe eb6b b63e 0eb2 9a3e
00000220: a5fd 8e3c 0c9a e8bd e4e0 8c3e a2e4 74be
00000230: 15c5 12be a190 93be dc52 ac3e 263e 793e
00000240: b554 89bd 87a3 a1bd c594 3bbe 3687 5c3e
00000250: 2fd2 9ebe bb7e aebe a981 34be 1288 40be
00000260: 91ab 0d3e 8dbb b6be 5538 c4bd 894e 9fbc
00000270: 9aa2 b5be 99fd 963e 8904 c6bd 9aa2 ad3e
00000280: e8ed 7abe 2a4b 053d d961 a1be 9b4b 0b3e
00000290: 599a 883e 7eb7 883e 8401 253e f044 143e
000002a0: 9780 b2be e5e7 eebd d629 40be b782 5d3e
000002b0: e0d8 b7bd 36da 553e e276 b43b 8428 10be
000002c0: f55a 37bd 6874 a93e 4c7d babe f669 9dbc
000002d0: b914 493e a86d 713e 983e 533e 1877 c93d
000002e0: d690 b1be 9281 9e3e fd6b c73d 8bfe 6e3e
000002f0: 795a 25be aa09 b3be 3ca6 babd 0bc6 4fbd
00000300: e98b 40be d6a5 213e 26d5 733e ba1d 403e
00000310: 2461 f1bd eda0 64bd a933 6fbe 4b3e aa3e
00000320: b509 3abe 8340 993e d40f 71be 0f72 5a3e
00000330: bcc1 6d3d 94f1 a03e edad 2fbe 3688 7abd
00000340: 10b9 803e 4c15 8bbe 9663 a5be a204 96be
00000350: 4086 8e3e ac8e 9a3e d41e 69be 2baf 74be
00000360: 1578 87be a4f4 923d 056d aabe 7b99 a93d
00000370: 3f25 99be ca90 b1be c2f2 82bc ab5f 71bd
00000380: f6e8 c03d 2083 debd eef6 123e ff43 7dbe
00000390: 8b48 ae3e 3b7e 993d 092b b7be 0755 b73e
000003a0: ae2c c3bd 8caa 0e3e cbaa 9bbe 39f6 7f3d
000003b0: 3bc3 7ebe 0298 28bd b8ee bdbe 541b b4be
000003c0: 46e6 8a3e 01dc fcbd 3313 893d 56a9 b1bd
000003d0: c1da db3c 9572 ab3e 6a24 4bbd e779 913d
000003e0: d1a1 a9be 99e3 d73d 7ddb 75bd 3155 f13c
000003f0: 0c61 923e c80f 07be 2008 5b3e 00f2 95be
-0.064065516 0.2912817 0.26390207 -0.10328872 0.34860745 -0.32078618 -0.24676132 0.08032287
-0.18266572 0.16986746 -0.15659684 0.12152146 0.33434913 0.05709491 0.3255413 0.14113419
0.06797099 -0.17300275 -0.19164804 -0.04761851 -0.042873506 0.10963839 -0.07405237 -0.27815995
0.2633943 0.062032327 0.18224911 -0.31501582 0.062567115 0.05127217 0.034259487 -0.023455236
0.26766774 -0.22100152 0.099526 0.24763373 -0.01022265 -0.011634431 0.23954228 0.37107894
0.35699168 -0.29640287 0.1099428 0.13795637 0.09738423 0.0596381 0.20125885 -0.13493744
0.15765733 -0.20688716 -0.026068157 0.15873437 -0.19104396 0.20006065 0.35998616 0.22871415
0.21219033 -0.073376246 0.012327887 -0.15673125 0.21509719 -0.32825783 -0.06288295 -0.33092344
0.093666285 0.19797812 0.046443358 -0.27525777 0.113231994 0.04550359 -0.2548111 0.23804058
0.26696116 0.09419081 0.03299911 -0.13528807 -0.35888126 -0.19423881 -0.3544728 -0.3670283
-0.041587584 -0.12320878 0.2251677 -0.118650116 0.103202105 -0.32709792 0.03151087 -0.040314674
0.27808347 0.003526684 0.27433223 0.28127095 -0.16716634 0.20868802 -0.063219145 -0.01925505
0.26946118 -0.019660179 0.23243931 -0.04254851 -0.16751315 0.17977948 -0.070189185 0.1728638
0.1831049 -0.19847946 -0.27214915 0.3297999 0.33083785 0.22000296 -0.30546427 0.2772197
-0.05510295 0.21267897 0.28401121 0.08836726 -0.11250712 0.17053148 -0.2035876 0.2246679
-0.045653712 -0.32509282 0.010597725 0.130138 -0.2589516 0.17201976 0.22019173 0.04739949
0.14371553 0.17022912 -0.20370364 0.24353671 -0.3356066 -0.18270972 0.3562921 0.3021397
0.017454932 -0.11357507 0.27515328 -0.23915341 -0.14332993 -0.2882128 0.33656967 0.24340114
-0.0670561 -0.078925185 -0.1831847 0.21535954 -0.31019732 -0.34081063 -0.17627586 -0.18801907
0.13834979 -0.35689965 -0.09581057 -0.019446628 -0.35475618 0.29490355 -0.09668834 0.33913118
-0.24504817 0.032542385 -0.31519964 0.1360306 0.26680258 0.26702493 0.1611386 0.14479423
-0.3486373 -0.11665324 -0.18765959 0.21631895 -0.089769125 0.20884022 0.005507336 -0.14077955
-0.044764478 0.33096623 -0.3642372 -0.019215565 0.19636811 0.23576987 0.20629346 0.098371685
-0.34680814 0.3095823 0.09737394 0.23339288 -0.16147794 -0.3496831 -0.09113738 -0.050725978
-0.18803371 0.15785918 0.23811778 0.1876134 -0.11786106 -0.055817533 -0.2335955 0.3325065
-0.18167765 0.2993203 -0.23541194 0.21332572 0.058046088 0.3143431 -0.17156191 -0.061165057
0.2514119 -0.27164686 -0.3230254 -0.2930041 0.278368 0.30186975 -0.22765666 -0.23894946
-0.26458803 0.07175568 -0.332863 0.08281227 -0.2991123 -0.34680778 -0.015984897 -0.058929127
0.09419434 -0.10864854 0.14352009 -0.2473297 0.3403972 0.0749478 -0.3577502 0.35807058
-0.09530006 0.13932246 -0.30403742 0.062490676 -0.24879162 -0.04116059 -0.3709619 -0.351771
0.2712881 -0.1234665 0.06693115 -0.086748764 0.026837708 0.33485857 -0.049595274 0.07103329
-0.3313127 0.10541458 -0.060023773 0.029459568 0.28589666 -0.13189614 0.21389818 -0.29286194
