non_semantic_speech_benchmark/data_prep/testdata/model1_wfrontend.tflite (tflite, 83144 bytes, 1 tensors)

model_10/dense_10/MatMul f4 [2048, 10]
0.014171973 -0.029059574 -7.654354e-05 0.02380567 -0.023082754 -0.013004031 -0.031371444 -0.011865418
0.044208393 -0.017188657 -0.019480482 -0.052037988 0.016970605 0.029471211 0.04007764 -0.0016536899
-0.013676744 -0.0038115792 0.0042372122 -0.022802642 -0.053596828 0.0020619966 -0.021175753 0.009709857
0.02369769 -0.0024811924 0.046347924 0.05144859 0.032512628 -0.010029506 -0.039689906 -0.015793711
-0.036081865 0.011402838 0.030098185 -0.032869313 0.03742586 -0.043875575 -0.018556044 -0.021584727
-0.021231662 -0.007547736 0.034550227 -0.02075011 -0.03415396 0.020615622 -0.052191723 0.020361781
0.015055962 -0.031566784 0.038756073 -0.028265478 0.0410766 -0.03489311 0.033671647 -0.027476223
0.014645979 0.048095845 0.029085755 0.0405211 -0.027023815 0.02339267 0.02805236 0.026337363
-0.04445995 -0.038999956 0.008401588 -0.014161389 -0.04268498 -0.030940067 0.005700145 0.013251625
0.016925149 0.03067176 -0.05016823 -0.019957453 -0.029021984 -0.024492338 -0.020442754 0.031158172
0.0027195811 0.05204106 -0.0050258897 -0.005065281 0.02297832 -0.002475541 0.025566906 -0.028349439
0.031130828 0.030742243 -0.0057084113 0.029875644 -0.048418287 -0.04789905 0.03239414 -0.02316002
0.05189903 0.018825017 0.03685113 0.020788305 -0.040917654 -0.021332268 0.036519818 0.031602226
-0.021447126 -0.04221116 0.038068898 0.040908605 -0.030500557 -0.027250862 0.045398973 0.020464972
0.016757943 0.03975538 0.012484014 -0.008583128 0.044359766 0.024955146 0.02866786 -0.041708224
-0.0077024586 0.006108694 -0.016682733 -0.04655606 0.00943625 -0.012863327 -0.016493134 -0.0040757284
-0.023097519 0.04078909 -0.014916737 0.023776561 0.031492002 0.006598916 0.023652375 -0.051319845
0.037579328 -0.024865357 -0.010186728 0.02595827 0.010284811 0.037715755 0.032610185 -0.019157834
-0.029348273 -0.02224597 -0.04428953 0.031916067 0.003956057 -0.021625679 -0.0050278082 -0.017875262
-0.0451802 -0.01894281 0.0045936145 0.008493941 -0.04657067 0.033626422 -0.023860808 0.004551839
-0.04136574 0.03220193 0.005314473 -0.048810292 0.049185775 -0.0075721294 -0.02934383 -0.03496751
0.017713785 -0.03105388 0.036258608 0.05092431 0.0155952275 0.018894844 -0.041324917 0.00024002418
0.040679842 0.0011051558 -0.05383536 0.015204497 0.053231806 0.028066404 0.017967753 -0.013457511
0.00488938 -0.033725344 0.0052083544 -0.042554777 0.03952145 0.037339404 -0.0066671446 0.0069012605
0.020741723 -0.030752078 0.03482622 0.020140298 0.051157355 -0.04897761 0.009355158 0.030102372
-0.029680548 0.014999546 0.00764364 0.010074124 -0.047309116 0.0031038262 -0.0096753985 0.032155223
0.03849899 -0.052403796 -0.04139853 -0.0145505 0.02125106 -0.022430316 -0.04146246 0.049116574
-0.037652794 0.03951265 -0.048497844 0.026432887 0.039493613 -0.032776676 -0.030850416 0.0102023855
-0.031333312 -0.0028448664 0.01379998 0.020781599 -0.01774421 0.040229402 -0.00682896 0.0058128275
0.012586549 -0.0043464825 -0.028094789 0.019057758 -0.0421104 0.022814333 -0.045028206 -0.05184746
-0.020172775 0.035171963 -0.0051715635 -0.032429427 0.0218241 -0.03103385 -0.044115573 0.034199238
-0.043451793 0.016008347 0.013705544 0.02018293 -0.03949055 -0.004800413 -0.0034264065 -0.04948181
00000000: 9031 683c 580e eebc 0086 a0b8 1c04 c33c
00000010: 0b18 bdbc dc0e 55bc 587f 00bd 2c67 42bc
00000020: dc13 353d 3acf 8cbc 8895 9fbc c925 55bd
00000030: f005 8b3c 9c6d f13c 7428 243d a0c0 d8ba
00000040: 6c14 60bc b0cb 79bb 50d8 8a3b 9bcc babc
00000050: 5988 5bbd 9022 073b c678 adbc 1816 1f3c
00000060: a821 c23c 809b 22bb 52d7 3d3d c2bb 523d
00000070: f62b 053d cc52 24bc e291 22bd d061 81bc
00000080: 94ca 13bd f8d2 3a3c 7890 f63c f9a1 06bd
00000090: dc4b 193d e0b6 33bd d802 98bc 74d2 b0bc
000000a0: 06ee adbc 0053 f7bb 8a84 0d3d 22fc a9bc
000000b0: 06e5 0bbd 18e2 a83c fdc6 55bd c0cd a63c
000000c0: 48ad 763c 2c4c 01bd b0be 1e3d 018d e7bc
000000d0: f03f 283d 14ec 0ebd 48eb 093d d115 e1bc
000000e0: b0f5 6f3c 2600 453d 4045 ee3c 74f9 253d
000000f0: 0c61 ddbc fca1 bf3c 10ce e53c 74c1 d73c
00000100: a31b 36bd 6bbe 1fbd d0a6 093c 2c05 68bc
00000110: 72d6 2ebd 0676 fdbc 48c8 ba3b 581d 593c
00000120: 9ca6 8a3c 5843 fb3c 347d 4dbd d07d a3bc
00000130: 83bf edbc 28a4 c8bc 9077 a7bc 6c3f ff3c
00000140: 003b 323b 0229 553d 38b0 a4bb a8fa a5bb
00000150: 083d bc3c b03c 22bb b071 d13c 153d e8bc
00000160: 1406 ff3c 28d7 fb3c a00d bbbb c4bd f43c
00000170: 4152 46bd cb31 44bd b8af 043d 15ba bdbc
00000180: 1494 543d ec36 9a3c 36f1 163d 3c4c aa3c
00000190: 4599 27bd 02c1 aebc ce95 153d 5671 013d
000001a0: e2b1 afbc 9ce5 2cbd 22ee 1b3d c88f 273d
000001b0: 4edc f9bc 333d dfbc 46f4 393d 28a6 a73c
000001c0: f447 893c 8ad6 223d c089 4c3c 40a0 0cbc
000001d0: 96b2 353d bc6e cc3c dcd8 ea3c 3ed6 2abd
000001e0: e864 fcbb 702b c83b 3aaa 88bc 91b1 3ebd
000001f0: 809a 1a3c b4c0 52bc 9c1c 87bc b08d 85bb
00000200: 0237 bdbc 7612 273d 5465 74bc 10c7 c23c
00000210: c2fd 003d b83b d83b a0c2 c13c c234 52bd
00000220: c8ec 193d 6fb2 cbbc 3ce6 26bc 70a6 d43c
00000230: a081 283c d67b 1a3d 4292 053d e4f0 9cbc
00000240: ca6b f0bc 2e3d b6bc f068 35bd 6cba 023d
00000250: d0a1 813b 5628 b1bc 50c0 a4bb 246f 92bc
00000260: e00e 39bd f42d 9bbc 0886 963b 2c2a 0b3c
00000270: e3c0 3ebd dcbb 093d be77 c3bc 9827 953b
00000280: 1f6f 29bd 2ce6 033d 0825 ae3b 4ded 47bd
00000290: 0677 493d a01f f8bb 7962 f0bc 173a 0fbd
000002a0: 801c 913c b564 febc e883 143d 0296 503d
000002b0: 2083 7f3c 5cc9 9a3c 5144 29bd 00af 7b39
000002c0: e89f 263d e0da 903a 7782 5cbd 481c 793c
000002d0: 9809 5a3d 84eb e53c 1c31 933c e47c 5cbc
000002e0: 1837 a03b 9623 0abd d8aa aa3b eb4d 2ebd
000002f0: 3ee1 213d 34f1 183d 1078 dabb f823 e23b
00000300: 8cea a93c c8eb fbbc f0a5 0e3d 44fd a43c
00000310: 608a 513d bf9c 48bd 6046 193c 4099 f63c
00000320: 9f24 f3bc a8c0 753c 8077 fa3b f00d 253c
00000330: 34c7 41bd 9069 4b3b 9085 1ebc 32b5 033d
00000340: 1eb1 1d3d 5da5 56bd 8191 29bd 3865 6ebc
00000350: b416 ae3c c8bf b7bc 8ad4 29bd 762e 493d
00000360: d139 1abd 04d8 213d ada5 46bd c889 d83c
00000370: 0ec4 213d d640 06bd 03ba fcbc e827 273c
00000380: 5c57 00bd f070 3abb 5019 623c 2c3e aa3c
00000390: 4e5c 91bc 96c7 243d 78c5 dfbb 8879 be3b
000003a0: d037 4e3c f06c 8ebb 0b27 e6bc 041f 9c3c
000003b0: f47b 2cbd 20e5 ba3c 7f6f 38bd 015e 54bd
000003c0: 6041 a5bc 7a10 103d 3876 a9bb b8d4 04bd
000003d0: 74c8 b23c b33a febc 88b2 34bd 8014 0c3d
000003e0: 82fa 31bd f023 833c 388d 603c ac56 a53c
000003f0: d8c0 21bd c84c 9dbb 908d 60bb 70ad 4abd
